trained_rbm/rbm.hid--pen.bias_h.npy (npy, 4128 bytes, 1 tensors)

array f8 [500]
00000000: 40a0 ce2d 423a 743f 48fe bfde 7115 83bf
00000010: ea7f d6d6 5768 8d3f 8a16 dfc8 b50f 693f
00000020: 36f8 a69a d187 6bbf 3219 99ac 499d 84bf
00000030: 499f 64e6 4f54 7e3f 05ee 2330 ab41 603f
00000040: 0771 4145 3ba8 88bf bcc6 0b18 2750 633f
00000050: a80a 49db fa20 58bf 0400 6e95 0034 583f
00000060: fe42 9c91 be1b 903f f0b1 0701 80e0 8abf
00000070: 2f8c 38c6 d8f1 40bf 1a4c e630 0449 75bf
00000080: 10c2 707c da52 8ebf 73cc 63b3 d997 903f
00000090: a87c 4ccd 5e3d 5dbf ae38 8b5b c572 93bf
000000a0: 5c63 cc58 313b 8fbf 360b 8a4d c37e 713f
000000b0: 6af3 3128 4774 7ebf 6939 efe3 2c42 8b3f
000000c0: dea0 0e3b 735d 663f b64e ec25 bae7 82bf
000000d0: 8877 f6fc d8dc ff3e 5ca7 ffd3 3384 783f
000000e0: 76e5 7bdf 1df8 8b3f 11e1 ff55 1eb5 893f
000000f0: 6835 569a f065 6bbf bc43 9058 7bdc 8bbf
00000100: 3c93 3f6c 9b7b 723f 23c7 1301 4ba4 78bf
00000110: 11df 2d69 ddde 8fbf b69b 170f ac28 983f
00000120: a5e0 a1c6 a780 93bf ce19 acf6 8367 683f
00000130: c1ab 1b6b a634 823f 8161 23cc 2177 92bf
00000140: e82a 29a7 5693 88bf efda e3b6 7357 723f
00000150: 086e cfb6 03d9 5fbf 8de7 b7b3 a1c3 97bf
00000160: d3cf 7bf2 e21f 473f 3556 14f1 2971 61bf
00000170: 60ca f548 5d0a 7dbf 4cdd 09b5 2002 62bf
00000180: 27ec 9f62 5a83 813f 69a4 fb40 c5e4 67bf
00000190: fbfa 3451 f1d7 363f 52b9 d952 227d 553f
000001a0: a471 115b aa5c 8a3f e886 f9fd cc48 8abf
000001b0: 954b a4fa 5657 833f 89d8 3eed daf6 87bf
000001c0: 9c42 d318 0154 863f 31b5 9c1e 9428 843f
000001d0: 1807 77c6 1f1a 78bf 2471 68cd 5d94 54bf
000001e0: a194 12cf d300 873f b09e 46f2 f620 733f
000001f0: d734 a5cc 59c1 83bf f85c a8ea 1b2f 7b3f
00000200: 0af9 c43c 65b2 9b3f 31a4 906a 1fcd 2fbf
00000210: 7549 5270 80b8 91bf 9bd2 bed7 c91a 79bf
00000220: 09fd 20e1 da2b 7cbf 0386 ab68 a143 773f
00000230: cba7 58ab d61c 833f bcc2 79e6 565d 963f
00000240: 270f 9b25 4e68 97bf cfe1 10d7 e3c3 703f
00000250: e807 a05a 138d 3fbf 7f7e b0c6 9743 833f
00000260: 38e1 ddff e094 903f dc92 64f0 963b 753f
00000270: cd49 e757 c80d 713f 285c 08d3 0e24 943f
00000280: 2405 54a3 4e3d 553f ebf7 83c0 f26f 54bf
00000290: 16c0 caf0 4309 683f d7b0 8872 e3d3 893f
000002a0: b66e 2d9e db51 84bf 4e19 1c25 892d 71bf
000002b0: fcbf cbb7 0eb1 70bf 9640 1582 7075 90bf
000002c0: 17ba 5825 02a6 733f 1634 117a 33db 85bf
000002d0: 8860 ad60 107c 86bf f972 173e 2730 80bf
000002e0: 21b7 677d 4888 7cbf e12f e194 8b41 91bf
000002f0: 685e 825f 07db 91bf 5cdd 9c7b ebab 883f
00000300: 8e81 1cf6 bb71 6f3f cc20 43ea 153c 3d3f
00000310: 2afc 647b 4bbc 603f dd9e b1f7 4579 843f
00000320: cc1e 8b16 1cd4 80bf 4b6c f014 449c 80bf
00000330: b327 47fa e9d1 903f eef3 0393 63f2 853f
00000340: 9304 dc5f 2abd 43bf 3165 025a 419d 373f
00000350: f0c5 85b6 e879 7e3f 978a a9cd 6331 7fbf
00000360: ef9a 73f1 a635 84bf d66c b1a2 9c22 39bf
00000370: 0751 cd4f da33 613f 0467 f37d 6dd0 74bf
00000380: 3c8a a694 bc1a 64bf 113f 9a75 3a83 813f
00000390: 07d9 1a49 60f4 993f 327c 92cd 61ee 94bf
000003a0: b897 27e5 9d64 5abf 317d 84b6 1a44 7fbf
000003b0: be01 b374 9a8c da3e e153 dd5e 4070 873f
000003c0: dcae bfc9 8d64 753f c014 ec51 8d92 82bf
000003d0: 1f0b 967e f80c 743f 0775 ff23 5ffe 4c3f
000003e0: c39c 4a05 6839 843f 4cfd f11c 3bc0 7d3f
000003f0: 6dfc 581d 8f5e 7c3f 15c7 6568 c471 883f
00000400: 138c 2de4 3b2d 84bf 24d0 a134 0ea3 7f3f
00000410: bf26 427d 2226 743f 18d7 04bc 3f95 843f
00000420: e357 0c3f 9282 7c3f 7fd8 1906 b8e5 94bf
00000430: 8403 b5c3 aaf1 7ebf ad40 292f 8c43 81bf
00000440: d22d c090 d6da 873f e752 6bdb 777b 923f
00000450: a067 3e98 12c3 7bbf fe56 3cfa 2b87 35bf
00000460: e481 d8f4 4cca 613f 788f b0bb 07f7 7dbf
00000470: ace6 f037 8270 73bf 7504 2d46 5d2b 7c3f
00000480: c511 0cbf 73ca 71bf ac5d 3d18 bfb4 30bf
00000490: f616 165c 1dd9 663f 0488 d558 e924 7fbf
000004a0: 53be 61bd ecf6 96bf 72d9 39f6 6c9a 643f
000004b0: 7f54 4670 ed9b 90bf ae05 c895 427e 6c3f
000004c0: 8f14 8eb4 3caf 64bf 9e54 120c 44e7 87bf
000004d0: 1ca6 3f5b af94 743f 2885 6661 7005 2e3f
000004e0: 514f 8d3d 9ba8 853f 7176 0996 1f1f 603f
000004f0: c852 4d0d 3623 14bf b383 52e5 dbfc 563f
00000500: 73e1 512c 6490 84bf d2be ac2a 2365 67bf
00000510: ecbb b362 6291 45bf 1eea e85f c6e5 60bf
00000520: 273d 55bc 93ff 73bf c109 5c4b ea58 933f
00000530: 7574 b74d 21be 76bf b611 59f6 0272 923f
00000540: be45 037b fd7d 87bf d0bb aff9 1d20 72bf
00000550: 8489 58cd 7fa3 793f 20eb 0884 86f2 653f
00000560: b628 3663 a594 813f 4033 f945 7136 833f
00000570: 2241 0058 a640 83bf e330 c983 bc7c 7a3f
00000580: 4239 c132 f315 943f cc96 9742 faaa 663f
00000590: dfcd 41c3 7364 8abf 9cb2 8865 b6a3 883f
000005a0: 7e89 500a fd10 70bf d022 96cf 4611 61bf
000005b0: 48f4 bb7f ed25 69bf f6bb 727a fb14 803f
000005c0: 51a1 f521 edc7 8d3f c7ec 073e 98d4 753f
000005d0: 2e16 026b aeaa 88bf 4089 d36d db5c 75bf
000005e0: a80e a45a 9ea0 993f ea82 eb05 c9e6 773f
000005f0: e8be 86a6 db56 74bf 40c0 ea6b 5bec 743f
00000600: 3788 4f55 e830 8bbf 1e22 3133 28a5 783f
00000610: 593d 83fc cf87 80bf 8854 9c75 15c6 4d3f
00000620: 02a5 5ef8 3552 833f 1195 b57b 7d8a 7c3f
00000630: 8e63 24ac 3dbe 72bf c766 5d61 a77c 823f
00000640: e329 72c0 9392 8fbf d79e 68d5 d011 6abf
00000650: 356d 24f2 8d37 66bf 36d0 6371 2b6d 7abf
00000660: 1cfc 5f35 31b3 93bf 091f fd40 8c1b 65bf
00000670: b2a6 722b b119 7dbf 8a6e 321c 5710 8fbf
00000680: 5675 b054 3551 86bf 83f4 fa42 a508 8a3f
00000690: 8423 8f50 b86c 46bf 1f35 11af f6e7 743f
000006a0: 2c8b 4eb2 ab03 74bf e031 6af8 079f 74bf
000006b0: 1f28 72dd 9e40 64bf e7ae 59a9 356c 83bf
000006c0: 07e8 54c6 6be0 833f 28c0 77a9 713f 913f
000006d0: 76ec e39f 1f81 6dbf c743 5138 312e 62bf
000006e0: 92c0 4595 d26a 71bf d61a 9174 9332 8f3f
000006f0: c0da 4b73 8e82 78bf 6979 663e d964 85bf
00000700: 4451 a401 8261 79bf 6a1b 110f 8075 85bf
00000710: f19d 3e69 1568 923f f238 4e9a b97c 913f
00000720: c763 2ec7 dcb2 863f ee28 4189 d580 88bf
00000730: 0efe fa98 582e 86bf 2a12 c1c8 f35b 9abf
00000740: 33e1 8258 59b9 6b3f 6eb0 dab8 8b91 783f
00000750: 3829 eeec 687f 7c3f df94 64d7 7d09 24bf
00000760: 4f56 a1d0 3563 713f 4326 4e40 ea96 703f
00000770: 65f4 59c1 8803 82bf f18f 7fc2 89a1 8a3f
00000780: 32ca 9100 6008 8cbf 3554 e970 2ca8 84bf
00000790: 3b4c 0e6a 2dcf 59bf d2b3 ddb4 380c 1d3f
000007a0: c8ba 47cc 51a8 803f 90a9 14b8 2b2e 393f
000007b0: 2839 5341 722c 133f a3f0 a775 5637 8e3f
000007c0: e394 fdc4 913c 313f 4007 bd8e 7e3c 7a3f
000007d0: 5ac3 1d1d 811e 693f becc 6371 1683 553f
000007e0: cf58 2d9c 2091 943f 9177 090a 4f92 67bf
000007f0: 5c6d 7f24 288d 93bf a5a1 2f7b 21ee 733f
0.004938372146092773 -0.009318246469773986 0.014359174960929939 0.003059248970177124 -0.0033606618719366444 -0.010065627650999252 0.007404625043171916 0.0019844382778708724
-0.012039626170171859 0.0023575557282747555 -0.0014727067729302466 0.0014772420597353184 0.015730836522439333 -0.013123512298045065 -0.0005171116321814935 -0.005196586962841665
-0.014806467936154838 0.016204263280951325 -0.0017846513557698094 -0.018992503845588864 -0.015249619982158506 0.004271281148819741 -0.007435110051230301 0.013309813219078053
0.002730107364602315 -0.00923104694587749 3.03866252672129e-05 0.005985453084557193 0.013656838782014385 0.012552487372872652 -0.003344507148262 -0.013604129448170237
0.004512412186134903 -0.006016057000339167 -0.015561799785913462 0.02359265176883315 -0.01904546880584292 0.002979047528586443 0.008889484542541017 -0.018032577595336278
-0.011999775863974674 0.0044779319853123075 -0.0019438301344426607 -0.02320721301473543 0.0007057054653771773 -0.0021291560339118617 -0.00708996238187129 -0.002198280221189874
0.008551317343508625 -0.0029167034734781006 0.0003485645440441246 0.0013115725700135372 0.012872057823351941 -0.012834168911641311 0.009443931125621844 -0.011701307644994568
0.010902412958246281 0.00984302252217137 -0.005884288904270972 -0.0012560764349763354 0.011232046849111223 0.004670109400116182 -0.009646131093769146 0.006636723565427653
0.027047712167807915 -0.00024262436389335806 -0.01730538068347572 -0.006129063080085341 -0.006877760884946634 0.005679731849086436 0.009332348922800457 0.02184043676101298
-0.02285883049513795 0.004093065262218378 -0.00048143122205612657 0.009406266928692062 0.01619292794882307 0.005183782201389344 0.004163534728336815 0.019668800001536507
0.001296355051920558 -0.0012473936677106455 0.002934105583641165 0.012611176426695554 -0.009921756519978824 -0.0041938168740272685 -0.004075105182650415 -0.016072996081959966
0.004796989805568439 -0.010671999132819503 -0.010978820753436716 -0.007904345114121624 -0.006965907252817678 -0.016851597749606987 -0.017437091068670446 0.01204666110025581
0.0038384123917156237 0.00044608626400278735 0.002042910981941333 0.009996935483470743 -0.008217067182513381 -0.008110553635608883 0.01642575826716781 0.010716226505332185
-0.0006023842722414789 0.00036032529352210673 0.007440480265687097 -0.007615461213023387 -0.009867958301084083 -0.0003835327540337557 0.0020999206448469895 -0.005081584647280261
-0.0024541552749764144 0.008551079477257003 0.02534628339955083 -0.020440605327731905 -0.0016109029717141631 -0.007633308742043086 6.329830124219105e-06 0.011444571394955307
0.005222848758403589 -0.009068588316504367 0.0048951823058611945 0.0008848156503479539 0.009875118886453987 0.007263403807086743 0.00692611602931868 0.011935743747673958
-0.009851901913583238 0.007723861208535996 0.004919180606643258 0.010050294804937063 0.006960459970988683 -0.020407557842610387 -0.007554690407517554 -0.00842961806225192
0.011647869389000674 0.0180491187737343 -0.006777832637363007 -0.0003284914366629004 0.0021716597609755407 -0.007315664489428879 -0.004745968500225278 0.006877292968796235
-0.004343464025400261 -0.00025491395375839654 0.002789075225055333 -0.0076035609357365565 -0.0224263182248577 0.00251504212956915 -0.016219816186624044 0.0034781742563161
-0.0025249658251050365 -0.011671573274990184 0.005024609552472661 0.00022904393035808848 0.010575497451703749 0.00196796578556651 -7.681863219250872e-05 0.0014030597133471822
-0.010041029551061986 -0.002855843243558678 -0.0006582003019540684 -0.0020626902108038655 -0.0048824091839628 0.01889387211759597 -0.005552415935622714 0.01801304462994021
-0.011470775906135763 -0.004425160494959848 0.006259440638617501 0.002679121709915036 0.008584301080891126 0.009381184528274411 -0.009400653420045094 0.006466614137547763
0.01961498257906525 0.0027670753377034615 -0.012886909862777905 0.012031006787844682 -0.003922451437605166 -0.002083433439740247 -0.0030698431636424807 0.007852520632097165
0.014541485403882478 0.005329699226872714 -0.012044298782949072 -0.005215508598867935 0.02502677372196041 0.005835328337270277 -0.004965646753063636 0.0051082202104880126
-0.013276877501940827 0.0060168810187595494 -0.008071541684698745 0.0009086231977756412 0.009434148447172056 0.0069680120171587015 -0.004575959117823282 0.009026820811118509
-0.015416292486652721 -0.0031823233396329575 -0.002712037313484262 -0.0064517685880112665 -0.01923825157427582 -0.002576612408947802 -0.007104579991542502 -0.015167885349277616
-0.010897080084812199 0.012711802584244097 -0.0006843471502345632 0.005104030236066564 -0.004886313142295855 -0.0050344764082521365 -0.0024722197372897404 -0.009483737211858535
0.009705392828085036 0.01684358212327211 -0.0036016099612630704 -0.0022192918136529657 -0.004252264585702064 0.015233184809529215 -0.005983883330137274 -0.010446259705358245
-0.006196506345322487 -0.010478020152857776 0.017975172566051915 0.017077350657523867 0.011083340481308114 -0.011964481593299738 -0.010830585640518666 -0.025741395118773415
0.003384279731189954 0.005998178281213835 0.006957445016164514 -0.00015287076139106675 0.0042450048586793595 0.004050173801155635 -0.008795803452125559 0.013003422020069851
-0.013687849061374189 -0.010086390682014204 -0.0015752738474688183 0.00011080833539063521 0.008133544012676977 0.00038422171936027764 7.314154966595445e-05 0.014753985848976752
0.0002630096323542176 0.00640534817267896 0.0030663034203190333 0.0013129920167187915 0.020084867031379624 -0.0028773826345930916 -0.01909315798535026 0.004865771089477643
