trained_rbm/rbm.hid--pen.bias_v.npy (npy, 4128 bytes, 1 tensors)

array f8 [500]
0.0020145378509894237 0.006579575305888814 0.012328847991272538 0.014022655775565107 -0.00010400619669875553 0.0144813780178914 0.0028053518850736808 -0.015628694088215923
-0.005783475614512694 0.0022611725751628016 -0.009515422683593512 -0.019259101591603045 -0.02118964160296997 0.007106049053215154 0.004540846467035053 0.007143183823647638
-0.022836559481401147 -0.004629615349415921 0.0035195399086105595 0.02288487771081493 0.007971733346172336 0.007061080005544634 0.01782050682818412 0.01212822922141464
0.010368728192104796 -0.008037389753283344 -0.018045124833849426 0.001642328773667516 -0.00601786559775507 0.0014633718089626083 -0.0012693209469262915 0.0008668276492500302
-0.007743955452921354 -0.01188227987673804 0.0022321205451128474 0.01621894300324468 0.016939513082560923 0.0030893212899827916 -0.0052431363925009205 0.0090001811555118
0.00040901661491249733 0.011574942137274702 -0.004243173713209341 0.009070493920166825 -0.015138713465868606 -0.015922024548541663 -0.01868377802617708 0.0036586662595970237
-0.013408669927623042 0.010466516552824545 0.011772038467597962 0.008368179364978919 -0.005918645752373283 -0.008390643557885116 0.00620808339778763 0.0038680013264176605
0.0030811507970218395 -0.006024853363514508 0.001524846755302617 -0.020184750507671784 0.01176683794845359 0.01754689866020514 -0.021792746934102557 0.01222840023273356
-0.0022426635372309396 0.0038668054673036342 0.0006080479591808608 -0.010309606262354765 -0.003910529581453176 -0.0064097237389884685 0.0002937965961065492 -0.005014652719595748
-0.0030520046728705046 0.0044891793804194766 -0.011581113851411938 -0.011813142229660754 -0.01629431268716667 0.005687093501605446 -0.004645925184012507 -0.004465092700695956
-0.005373162583270866 -0.001365512989055567 -0.003376379213661275 0.0004539394958248699 -0.0004812160526512368 0.0038013532278519256 -0.0075383675483836204 0.012046678880493378
-0.00319489505391365 -0.004577827138580919 0.010865415510168636 -0.017219626069873407 0.018850955468239936 -0.007876575404592452 -0.006887576643955435 0.0027969791830926823
-0.0023464205002235077 -0.007208058188962929 0.004975603403279904 0.0133838031032492 0.0034614385254384595 0.0037735306726628197 0.005494776452632886 -0.000951697330289209
0.005019160881145922 -0.004371843778375072 -0.003460399008052322 -0.012300165199729684 -0.009720856539527646 0.00978966405920927 0.0015667020495248446 -0.00935003967491982
0.0014917896659282757 -0.006444731426521331 -0.009737831737158613 -0.0016986499802843541 0.0017612496295083384 0.01935259908786775 0.00485153902696471 -0.0015812074376280205
0.0015174061441331882 -0.008907333349936047 0.0012421546669698145 -0.005969990642925417 -4.805255435962292e-05 0.006872421537349781 -0.010113226472590333 0.016352514984293
0.013577842499011488 -0.0005863689223164297 -0.01148246343522821 -0.003521522950554782 -0.003150269897183349 -0.00884519755170006 -0.0047429341478944995 0.0073850012124922985
0.0069129425831966265 0.014768051902102387 0.001533833477684534 -0.002521043142842397 -0.02882236492169791 -0.0009326572877377883 0.006379645965125065 0.008864715055513749
0.020691087416628114 -0.012221341157229256 0.004700603865393808 -0.003173825890585376 -0.004776900817680444 0.004658122779277955 0.007585719563105294 -0.0058288229954680726
-0.00910645522023545 -0.006686030014927194 0.0012345877607392167 0.0023969213740879574 -0.004142300304003705 -0.001137434500659231 0.006399829872166916 -0.00012496502794928386
-0.006235574634275141 -0.007925319640876439 -0.00039174546305385994 -0.010194583085864848 0.003542336268423974 -0.0004679023196849574 0.013898969304770603 -0.002274486396185812
-0.00732088671202033 -0.022162815264343477 -0.0019479258254944533 0.010810771351240507 -0.012239150911067071 -0.006925571374908254 0.002152382587336738 0.001682736412072278
0.00014105615014584872 0.001485156073834388 -0.0070608147196217575 -0.0025140479811569354 -0.0045033307832476055 -0.002464971460356448 -0.010471696569280901 -0.0035031677974919455
-0.011070377785588312 0.005060908984930994 -0.001523163325056854 -0.00412077396917309 -0.01521413094186326 0.003436365534642983 -0.004874115333933382 -0.01756629266544729
0.003106827531230463 -0.005195842986671424 -0.004893884559193649 -0.007676261840937063 0.0020227402632929012 0.006154126855820605 0.005729804001521883 -0.01648653919284621
-0.00919784480331952 -0.0029604139289450605 0.004977632114173911 0.0003487469945661197 -0.006117329122002769 -0.010217526790698712 -0.005598965061151502 0.00895270226032966
-0.009679576370932336 -0.0035856594667102453 0.011119007570599556 -0.019491698729671096 -0.0025780616531593443 0.0023272137633161085 -0.0014087558026318909 0.010704490043000493
0.0016569495442084819 -0.0034928978525150902 -0.0015959757681226266 -0.015452213709867078 -0.011839110226140478 -0.006218100878423592 0.014101305751149745 -0.025119052122698538
-0.0006856738274760597 -0.008287003834450498 0.005228389100612379 0.001702634623092978 -0.008446041808884116 0.006092068555643225 0.01569520933052226 0.009132134852178434
-0.008469088783131743 0.011103055688140765 0.01729834136783245 -0.014656686931016197 0.006037300190884094 -0.009287596330072215 0.0376805924713136 0.005444259995370459
0.0036997365537703663 0.012637357156167692 0.0037872393128858058 -0.0036381968705834255 -0.0015173588107638425 0.007707975958594532 -0.00244158006073984 -0.0126086010188996
0.0026851918244372454 0.0013224635308025862 -0.00581787628793111 0.0013008378748628462 0.0009032390923390066 -0.00926274356475494 -0.01905227920995035 5.841737097749376e-05
00000000: 753f f8c5 ca80 603f fb70 2a4c 2ff3 7a3f
00000010: 3fe5 5bf7 dd3f 893f e045 acff e8b7 8c3f
00000020: 3a2f 86da bc43 1bbf 8021 e7a7 69a8 8d3f
00000030: e589 34d3 3ffb 663f 2dca f3e7 f700 90bf
00000040: b8d9 f1e9 69b0 77bf 2897 59c8 0586 623f
00000050: 4184 de69 d27c 83bf 80f2 f16d a8b8 93bf
00000060: 7b7c cbc6 bcb2 95bf 3ce8 9884 3b1b 7d3f
00000070: b335 2731 6c99 723f 7512 97ce 2b42 7d3f
00000080: 98cb 8090 7762 97bf 4502 4de8 80f6 72bf
00000090: 360c be99 02d5 6c3f 5f17 5d25 226f 973f
000000a0: 582b 1df0 7b53 803f 130c 2c3b 14ec 7c3f
000000b0: d8cc 19f8 893f 923f 7739 ea5e afd6 883f
000000c0: 8fbe e323 333c 853f 289f 1531 e875 80bf
000000d0: 97f2 0dd4 6b7a 92bf 7ad3 d117 6de8 5a3f
000000e0: 76ff f17e 30a6 78bf f7b1 ed83 d3f9 573f
000000f0: 3f9b 21fd eacb 54bf 0867 d033 7a67 4c3f
00000100: 5576 9736 20b8 7fbf b1b2 c79b bc55 88bf
00000110: 7f60 be97 1849 623f 0337 19d7 b29b 903f
00000120: c18e cc7a 9758 913f 7bb4 08bd c64e 693f
00000130: d51f 59b5 d379 75bf f49a c4dd af6e 823f
00000140: 3cc4 0cfc 28ce 3a3f b324 766f 9ab4 873f
00000150: df8d 4545 4a61 71bf d528 f715 8d93 823f
00000160: 4855 eab9 0b01 8fbf 086d e3fa dc4d 90bf
00000170: 0a45 5a1e d721 93bf 5384 d27d c7f8 6d3f
00000180: 8e74 9336 0176 8bbf e01f 6112 786f 853f
00000190: aa00 ce41 f01b 883f 44e0 9805 5623 813f
000001a0: 49be 165f 263e 78bf 0859 631d 1d2f 81bf
000001b0: 5521 a1b2 a56d 793f 52c6 5466 c9af 6f3f
000001c0: ba37 083d a43d 693f d145 8d42 84ad 78bf
000001d0: e707 82bc abfb 583f 45c5 3bad 4fab 94bf
000001e0: 4dd8 5341 3619 883f ee35 916f d0f7 913f
000001f0: f3e6 7c7d d650 96bf 13ea a718 340b 893f
00000200: 51fd 8bd1 345f 62bf b0bd b460 47ad 6f3f
00000210: 86b2 ae0c adec 433f ba02 daed 331d 85bf
00000220: d31d 99ca 7c04 70bf 4a98 5d1d 1541 7abf
00000230: cdc2 9ec5 1641 333f db43 e796 3e8a 74bf
00000240: 3c21 3b88 8400 69bf 7818 ffe9 3e63 723f
00000250: 0ccd f1c9 d6b7 87bf 6cab 501c 7d31 88bf
00000260: 8aa1 68d0 74af 90bf 753b 9489 594b 773f
00000270: ee95 990b 9b07 73bf 0735 f831 fd49 72bf
00000280: c4cb 2359 2b02 76bf e520 5668 605f 56bf
00000290: d074 a6c9 c7a8 6bbf 295a f749 d7bf 3d3f
000002a0: facc 5c35 7789 3fbf 21d3 69f9 0324 6f3f
000002b0: 505a 5e21 8de0 7ebf 007d 89de edab 883f
000002c0: b6aa a938 2e2c 6abf 9217 8d1d 33c0 72bf
000002d0: 8a62 3062 9b40 863f 4a1f 478b 05a2 91bf
000002e0: cc11 f034 aa4d 933f 173b 230e 9821 80bf
000002f0: 6ea3 f3c6 2536 7cbf 7aa6 cec3 b0e9 663f
00000300: 2aba f4e9 cc38 63bf 4d36 0763 3286 7dbf
00000310: bfba 515e 4c61 743f 9818 ffa4 f768 8b3f
00000320: 0da5 71a8 295b 6c3f d396 8bda aae9 6e3f
00000330: a431 9bd2 b081 763f d25f 6374 6a2f 4fbf
00000340: 58f9 67bd f88e 743f ff4b d2e0 35e8 71bf
00000350: 5823 4392 fb58 6cbf 1359 253a d430 89bf
00000360: 6139 6947 87e8 83bf 9af8 c877 9a0c 843f
00000370: bba2 2d84 39ab 593f 21ee f514 1d26 83bf
00000380: f596 f8f4 0471 583f 64a8 556b ca65 7abf
00000390: 0fa8 c2a6 6df1 83bf 1206 3687 a7d4 5bbf
000003a0: b5e0 c363 37db 5c3f f330 b3f0 2ad1 933f
000003b0: b01b 4c17 35df 733f 0a44 e68e 10e8 59bf
000003c0: b61f e270 76dc 583f 63da 750b 023e 82bf
000003d0: 1e17 f56a f959 543f 41c4 1929 fd73 78bf
000003e0: 6119 1a32 8131 09bf 72b5 f49b 4126 7c3f
000003f0: a18f a747 3eb6 84bf 1a72 42b4 b6be 903f
00000400: b631 de2b b3ce 8b3f 4c6f 20ac d136 43bf
00000410: 8e5e 7427 1e84 87bf 55ae f33c 2bd9 6cbf
00000420: d8be d245 98ce 69bf 688f b051 6e1d 82bf
00000430: 782c d6b0 536d 73bf fa66 042b bc3f 7e3f
00000440: f6f5 05e5 be50 7c3f 3ab0 8f5f b63e 8e3f
00000450: d651 f227 5d21 593f edc3 35bb 02a7 64bf
00000460: caa3 ed2a 9c83 9dbf 3f82 4c46 b28f 4ebf
00000470: eefc 7b2c 8b21 7a3f acaa 03ea a927 823f
00000480: 2fa6 175f 0b30 953f b120 aba4 8007 89bf
00000490: de1b f9bd f040 733f 4486 e7cc feff 69bf
000004a0: 775b 9c8c f190 73bf 38ca f64f 6514 733f
000004b0: 15ea 0a17 3412 7f3f 973e 3cc2 f6df 77bf
000004c0: 3ec3 d3ba 67a6 82bf 1026 1184 cf62 7bbf
000004d0: 3f55 9c83 3c3a 543f ce95 355d b5a2 633f
000004e0: c7df 5f45 84f7 70bf 09bd d3fe bea2 52bf
000004f0: 7ec5 0340 b536 7a3f a157 976a 2161 20bf
00000500: 7102 0452 798a 79bf 9ae1 5765 263b 80bf
00000510: 2397 c1f3 65ac 39bf 3fe5 99c7 e5e0 84bf
00000520: 68fe 934d d104 6d3f 702f 2829 19aa 3ebf
00000530: 6d93 e514 1077 8c3f 5f63 fa95 f1a1 62bf
00000540: 60f4 1790 81fc 7dbf 9b96 fd5a d9b1 96bf
00000550: be48 cb6d 31ea 5fbf 3155 2f2b f523 863f
00000560: 7796 2607 d710 89bf 9644 fbe8 fc5d 7cbf
00000570: f460 469a dfa1 613f e88d e376 e891 5b3f
00000580: 2765 821a 0f7d 223f 518e 0f31 3255 583f
00000590: a9bc dc04 cdeb 7cbf d833 823b 5798 64bf
000005a0: 0070 fea6 1572 72bf 6a88 d979 6b31 64bf
000005b0: 2fbb 6352 2f72 85bf 1892 ece3 acb2 6cbf
000005c0: 1205 59f4 10ac 86bf 38c3 4069 bfba 743f
000005d0: d0b9 b92a 9cf4 58bf f8ad e8d6 f1e0 70bf
000005e0: a8ae a816 9628 8fbf e81d d4b2 9426 6c3f
000005f0: 337f 4c5f e1f6 73bf 604d 0af2 e5fc 91bf
00000600: d3a3 8254 7d73 693f 0819 3f7b 3c48 75bf
00000610: be3a 1d22 9c0b 74bf 846a ffd8 2471 7fbf
00000620: 6bc2 ee68 fe91 603f 7088 4cd9 1135 793f
00000630: eecf c88c 2278 773f d146 a1ea d8e1 90bf
00000640: b9d4 fdd4 51d6 82bf cdf6 3c20 7040 68bf
00000650: 0a35 45f2 6c63 743f ea68 adef 00db 363f
00000660: 5b32 4908 7c0e 79bf 64e3 4b3b edec 84bf
00000670: 55f6 43bd f0ee 76bf d4fd 595b cb55 823f
00000680: 9049 9ebf e2d2 83bf 8193 9c44 ac5f 6dbf
00000690: f1a0 09ef 8fc5 863f 2e85 59c2 a1f5 93bf
000006a0: 2db5 984f 961e 65bf d5c3 2260 8510 633f
000006b0: 0834 6c06 c014 57bf 1a88 3d55 3cec 853f
000006c0: 21b4 9f06 c025 5b3f 552c 6f41 239d 6cbf
000006d0: 9cc5 acee 0126 5abf 5207 4704 69a5 8fbf
000006e0: 3e4e e179 1a3f 88bf a52c a8be 2678 79bf
000006f0: b6b5 4138 25e1 8c3f 4d79 7e0d cfb8 99bf
00000700: 13f7 1555 d977 46bf 9138 9bd3 c6f8 80bf
00000710: df91 2a03 5d6a 753f 9076 7c01 5ee5 5b3f
00000720: 1167 cc8a 284c 81bf 5836 6233 fff3 783f
00000730: 7f26 1dab 6712 903f f51b 4364 deb3 823f
00000740: e2c3 cdda 3d58 81bf 4fa4 87e8 32bd 863f
00000750: 77ae cc09 a8b6 913f 4899 4a38 5304 8ebf
00000760: 6e05 046e 91ba 783f 6808 f813 6005 83bf
00000770: 6e65 b7e0 de4a a33f 7fba 186a b84c 763f
00000780: 7382 12f0 e84e 6e3f 5884 8c5d 9de1 893f
00000790: d106 b69f 6a06 6f3f 0a08 6b12 dacd 6dbf
000007a0: 855d fc9d 43dc 58bf 137b 910a 6692 7f3f
000007b0: 5abe 5d50 5d00 64bf bf25 32c8 89d2 89bf
000007c0: c3e3 3862 41ff 653f 6456 5b67 d0aa 553f
000007d0: 31ae 3846 7cd4 77bf f8d6 5008 1c50 553f
000007e0: 5223 582e eb98 4d3f 6771 7465 58f8 82bf
000007f0: c3e6 7bd0 7082 93bf 3b1a 3b95 a5a0 0e3f
