trained_rbm/rbm.vis--hid.bias_h.npy (npy, 4128 bytes, 1 tensors)

array f8 [500]
000000 f1 6f e7 25 60 2a 83 bf 60 17 df d5 9a 85 8b 3f
       -0.009358168751468528 0.013438424732054421
000010 63 75 17 16 a9 ff 69 3f 20 b4 ef 00 51 65 71 bf
       0.0031736662356098163 -0.0042470134930967796
000020 75 04 ac 74 34 ea 83 bf 77 0d 81 05 51 8b 71 3f
       -0.009724054155869613 0.004283253183590011
000030 4e 37 e5 0d a1 f5 80 bf 58 8a 9f 5c 18 06 7d 3f
       -0.00828100036292381 0.007085890925710624
000040 80 74 38 60 55 3c 8a bf 71 f2 1e 79 11 62 62 bf
       -0.012810389517705412 -0.002244028212741882
000050 bc 25 f3 2a 59 79 75 3f 2c 21 da 4d cc 38 92 3f
       0.0052426798931234884 0.01779479241534536
000060 ed 5d f9 fc 66 77 6e bf de 34 59 9c 24 7a 84 bf
       -0.0037190448272601457 -0.009998594304443772
000070 cf d7 b5 34 0b 13 90 bf 47 07 80 99 44 f8 71 3f
       -0.015697646228964687 0.004387157408929649
000080 75 8a 1b 7d 9b 38 80 3f dc a6 d3 55 1d 3d 84 bf
       0.007920470004539862 -0.009882191831326485
000090 b6 da da 47 13 ee 8b bf 60 7d d5 de 0c 6f 71 3f
       -0.013637686376893537 0.004256296420265343
0000a0 47 c9 cd 06 bd 0e 84 bf cc b1 58 c4 2a 37 79 3f
       -0.009793736238610363 0.006156127031811964
0000b0 36 ea 8b 0d d8 83 88 3f d1 73 52 27 c6 10 76 3f
       0.01197022239056365 0.005387090718753166
0000c0 8e 15 c5 c7 e8 0b 76 bf cd f1 1c 64 04 ae 65 3f
       -0.005382451341863782 0.0026464544070263552
0000d0 b1 e4 60 16 9a 37 81 bf e0 b6 e0 25 2d 73 7f bf
       -0.00840683346551638 -0.007678200110644545
0000e0 44 71 7b b0 82 26 8b 3f 42 09 be 42 5f 4d 60 bf
       0.013257046709832417 -0.0019900188980851727
0000f0 76 a2 b0 f4 0e 16 78 3f da f9 e2 2b 08 e6 97 3f
       0.005880411549732947 0.023338439634921083
000100 d7 fc ce 8e b9 4b 7c bf 98 df a8 ad e9 0c 80 3f
       -0.006908154330573533 0.007837129223034187
000110 f7 42 07 ba 64 4d 83 3f 38 37 f7 28 b8 09 83 bf
       0.009424960066924266 -0.009295881986783536
000120 7f 91 ba d8 e2 a4 90 bf fb 7f 71 db fa 81 82 3f
       -0.016253990629267797 0.009036979505424361
000130 97 57 db 0c 8e e4 72 3f 3e 19 68 dd 16 bc 60 bf
       0.004612498172454147 -0.0020428129748807635
000140 53 f8 2b f1 a3 d7 88 bf 71 07 96 27 3f bf 87 3f
       -0.012130051419713938 0.011595242877550512
000150 5a b8 e3 81 47 f3 60 bf dd 42 64 8d c3 f1 92 3f
       -0.002069129622319682 0.018500380997525368
000160 8e 2b 6a ed da e4 05 bf 93 0e e3 39 9a 5e 97 3f
       -4.175942529113025e-05 0.022821817191256043
000170 6f cf 82 71 34 26 90 3f e7 02 12 7c 1d f4 8a 3f
       0.01577073996368433 0.01316092524416619
000180 33 7b 75 03 4c 2e 8e 3f 43 f8 76 45 9a ab 74 bf
       0.014736741881902304 -0.005046465513656231
000190 fe 18 15 bc f4 48 7c bf 21 4c 3b d9 8c 09 85 3f
       -0.006905513758573399 0.010272121791251422
0001a0 0c 70 84 24 04 a0 97 3f 93 d8 64 5b 38 bd 80 bf
       0.02307135079273341 -0.008173408784028424
0001b0 53 f1 92 4f a4 ae 56 3f a9 e3 d8 be 77 f8 79 3f
       0.0013844112966544155 0.0063404729422068895
0001c0 c1 57 43 28 f1 a7 84 3f 60 d8 4e 0f c1 1d 90 bf
       0.010085948983412753 -0.015738503035855778
0001d0 5e 33 67 e9 8c f4 8c bf 6c 80 e2 9b fd 33 5e bf
       -0.014138317940614872 -0.0018434502267510545
0001e0 95 79 0e 58 a2 c1 52 3f 7d cc 4c a9 26 62 94 bf
       0.0011447987928715254 -0.019905666430713332
0001f0 44 5f 2d af 9e fd 46 bf cc 5c 5b b6 3a 77 8c 3f
       -0.0007016205621352763 0.013899286928263165
000200 5b 2f 96 d5 c2 7d 95 bf 37 e6 14 96 54 86 9b bf
       -0.020987552915854617 -0.026879617367035116
000210 bc 02 d6 83 54 45 71 bf 84 ec 23 e7 76 cd 6f 3f
       -0.004216508995683096 0.003882152778826477
000220 89 cb 3b 26 e0 a4 85 bf 16 d2 e8 ea 8b bc 30 3f
       -0.01056838146857843 0.00025537887532614664
000230 21 e6 c6 52 77 86 5d 3f fa 1c 97 71 ae 2c 78 3f
       0.0018020787493767748 0.0059019865233900185
000240 13 16 17 42 87 06 74 bf 7c 1e de cd ef 0b 55 3f
       -0.004889038421827435 0.0012845842206576077
000250 27 bc c9 39 c8 09 90 3f e1 27 eb a1 a1 e8 71 bf
       0.015662315871335288 -0.0043722451943697125
000260 c1 76 20 0d 86 3e 96 bf ea 14 64 60 98 c2 64 bf
       -0.02172288375014975 -0.002534196482090513
000270 03 e8 64 a0 70 5a 8a bf be 4b 58 7b 8c 6a 70 3f
       -0.012867813010064571 0.004007862813085459
000280 fe f3 55 8f db 94 82 bf 77 f7 1f 80 d3 af 87 3f
       -0.009072985946426467 0.011565830562172625
000290 6e c4 a6 d6 11 49 80 bf 85 2f 5d f8 8f 87 6e 3f
       -0.007951869357244425 0.003726750556699745
0002a0 84 7e 02 a6 9a 7a 74 bf 5b 9d db c1 cc 47 8c 3f
       -0.0049997368770672325 0.013808822313378035
0002b0 71 7c 9a ce 96 08 55 3f 69 63 d2 80 a4 f5 69 3f
       0.0012837860798880186 0.00316888932736641
0002c0 18 f5 35 cf f9 ad 92 bf 1d 1e f5 8b 49 8c 62 bf
       -0.018241790077344694 -0.002264159818569102
0002d0 87 79 6a 59 02 5c 85 bf cc 2d 3c c7 30 47 7a 3f
       -0.010429399827725628 0.0064155488396510744
0002e0 4d 87 b0 25 85 e6 8f 3f 87 23 05 a1 de da 90 3f
       0.015576400959676962 0.016459921434293114
0002f0 c9 75 ff 87 12 46 7e 3f 0e 71 b2 e6 ce bb 8c 3f
       0.007391044986403591 0.014030090728106372
000300 f7 43 16 c1 58 4b 61 3f 1f 3c 6f 8e 10 27 79 3f
       0.0021111234170310095 0.006140770600679551
000310 40 63 e8 81 ed 9d 02 3f c9 34 0a 32 10 c6 5b bf
       3.550892892096322e-05 -0.0016951711806172823
000320 89 34 50 b4 d4 3c 5a 3f 24 46 ed 1f 82 6a 8d bf
       0.0016014172736078822 -0.014363304709749398
000330 aa 6b 63 01 1f e8 84 bf eb 8e 2f 04 1a 8c 90 3f
       -0.010208360891217644 0.016159445291022683
000340 52 44 e7 b1 dc c4 8b bf 58 83 36 98 47 52 92 3f
       -0.013559078387432564 0.017891997018185307
000350 1e 2a be 26 72 60 6d bf 75 5d cf aa 04 5a 79 3f
       -0.0035860280531257024 0.0061893637002506845
000360 d2 a4 1f 8a 7b d4 8b bf 35 88 1b 4b 42 1b 8e bf
       -0.013588872101495762 -0.014700429837322651
000370 97 f4 cd a4 ae d6 8e bf e3 36 73 34 c8 e7 7c bf
       -0.015057911304888356 -0.0070569820883983085
000380 5f be 71 b2 90 f6 5f 3f 0c 65 06 79 65 1a 9b 3f
       0.001950875573836351 0.02646788169076779
000390 f5 8e e6 10 ed cc 71 bf c4 ed 57 e8 56 65 29 3f
       -0.004345823325283983 0.00019375501521766262
0003a0 8c da 2b 41 2d bc 95 bf f3 25 19 7d c0 74 87 3f
       -0.02122564993166036 0.01145315534371869
0003b0 65 99 02 93 0e 58 82 3f 1f c3 b9 fd 78 1c 91 bf
       0.008957017766374429 -0.016710176931556405
0003c0 48 ae bc 9c 21 d3 6e bf 4e 52 b2 25 b4 a2 8b 3f
       -0.0037627846230828023 0.013493926430137606
0003d0 67 57 45 97 e3 54 62 bf 30 94 2d 87 9f cd 6a bf
       -0.0022377438673783392 -0.0032718768865600753
0003e0 95 b9 f1 a2 44 a5 8d 3f fe eb 25 64 f5 39 6a bf
       0.01447538015619613 -0.0032014649197527048
0003f0 12 64 43 d3 3c f9 84 bf 99 aa 5d 6c 30 32 63 bf
       -0.010241007992975813 -0.002343267990842901
000400 3c 36 6f 31 d6 91 58 3f 7a 10 32 fd 36 24 87 bf
       0.0014996139268420713 -0.011299543001094248
000410 04 8b 11 ad e2 8a 6b bf 17 6a 02 20 55 04 82 bf
       -0.0033621241823750276 -0.00879732612547905
000420 83 fc 25 89 8e 55 77 3f 41 cc 55 08 d9 b2 19 3f
       0.0056968276788885745 9.803247129074132e-05
000430 d7 33 c1 56 a6 89 72 bf cf ab ad d6 29 a1 56 3f
       -0.004525804291984201 0.0013811977939563907
000440 e1 9b 98 b3 34 1a 43 3f b3 2f 3d 5e 80 32 80 bf
       0.000582957966973715 -0.007908823848673174
000450 93 06 29 26 82 8b 72 bf 49 20 1f 2e e2 45 8b 3f
       -0.004527576823024087 0.013316885979193798
000460 81 e1 47 1b cc f3 90 bf 0b 96 e1 f9 8c 99 83 3f
       -0.016555012860381083 0.009570218444603837
000470 c8 d4 69 5e 42 ec 8a 3f b8 4f 11 88 11 02 83 3f
       0.013145941263454822 0.009281289067224793
000480 08 04 ef 4a 81 79 47 3f 25 9e 95 76 11 fd 73 3f
       0.0007163888275202321 0.004880016532616637
000490 c8 e3 f1 56 a7 e5 83 3f 93 5e 0b c0 c4 e2 92 3f
       0.009715373364302851 0.01844317838808125
0004a0 3e cd a9 d6 b3 73 32 bf f2 6f e7 e0 39 95 85 bf
       -0.00028155460919450706 -0.010538532424952483
0004b0 4e 9a 42 9d 41 45 6e 3f 71 0c ff 34 2e b6 69 3f
       0.003695133355069025 0.0031386282425685465
0004c0 8c 61 70 68 74 ad 71 3f 5c e3 c6 64 77 ce 25 3f
       0.004315809935200209 0.000166370462819444
0004d0 3c a9 93 57 6a b9 86 bf 29 bf dc 4d d0 6d 67 bf
       -0.011095839307433956 -0.002859980434457916
0004e0 f8 e1 f6 44 de a8 61 bf 70 33 02 16 93 33 6d bf
       -0.0021557179640832 -0.003564631726538918
0004f0 01 49 a5 61 6a 05 94 bf 21 51 cf 89 f3 d3 64 bf
       -0.01955190869313928 -0.0025424725158506166
000500 71 5c fc 57 9e 86 7c bf be 45 04 19 1c 3a 8c 3f
       -0.006964319734627287 0.01378271056504132
000510 eb 25 f6 9b 68 cf 71 3f 28 b0 7d 20 14 c6 7c bf
       0.004348190908225895 -0.007024839993260236
000520 da 09 3e 5c 93 5b 60 3f 3e 68 86 02 da 0b 79 bf
       0.0019967916613847616 -0.0061148181925095284
000530 97 b4 58 1f be d2 56 3f 9f 80 26 e0 d0 3b 7e bf
       0.001393018404438428 -0.0073812636568676695
000540 f0 1d 7e c6 14 1c 6d bf 52 eb 03 d1 6d 69 78 3f
       -0.003553429200056739 0.005959919901438253
000550 ad e3 b8 b6 c2 0a 87 bf ef 52 36 3e b3 6c 85 3f
       -0.011250992966880558 0.010461235366884007
000560 44 7b be 48 c4 d5 79 bf 0a c5 f7 2b 7b 21 82 bf
       -0.006307379469858546 -0.008852922705929096
000570 4e 07 3d 22 ee a1 62 3f b5 dc 07 c0 f0 1e 85 3f
       0.0022744799661333142 0.010312920437156906
000580 db 40 30 a9 a8 ba 58 bf 0d 10 7e 86 48 94 87 bf
       -0.0015093466834095657 -0.01151329670370418
000590 7b d1 7d b0 d0 08 7a 3f fa 93 36 4c 7d 5a 83 bf
       0.006356063073202352 -0.00944993866762366
0005a0 f8 31 03 4e 08 12 88 3f 5c 3f 62 19 c8 d5 5a 3f
       0.011753144150497427 0.001637883576709207
0005b0 f8 15 f0 b1 00 30 64 3f ec ae e9 68 eb b2 30 3f
       0.002464295728261897 0.000254805062388937
0005c0 ba 43 f8 8a 3b ce 79 3f f3 56 11 fa 11 f7 86 bf
       0.0063001943485838045 -0.011213436550103739
0005d0 45 79 c5 8e 93 54 6f bf 1b 75 64 06 89 30 75 3f
       -0.003824508856424521 0.005173239949980225
0005e0 61 e5 e4 60 5a 3e 7e 3f 7c 61 21 8a b8 1a 94 3f
       0.007383683243739143 0.01963318198281304
0005f0 7c 58 3c 14 47 e7 90 bf e5 7e 47 fa bf d0 8f bf
       -0.016507254228678367 -0.015534877610604745
000600 87 0f fe 68 1a 44 85 3f f7 e7 00 7c d7 98 85 bf
       0.01038380272780849 -0.010545428725993828
000610 75 67 14 94 f2 82 82 bf ac 75 b6 a6 2a 42 80 bf
       -0.009038825172456669 -0.007938702786129813
000620 07 27 4e 31 c4 45 85 bf 63 b5 f5 a5 be c0 4e bf
       -0.010386975054433657 -0.0009385043048674543
000630 15 61 20 ae 38 69 82 3f 5e 21 50 db 3f a8 82 3f
       0.008989756406706332 0.009109972839738741
000640 b1 ac 58 f9 ba a2 48 bf 1c 13 9a c5 c4 f5 91 bf
       -0.000751820846465098 -0.017539095459613838
000650 04 1d bd 8e e1 c2 7a bf a8 f0 ef 5f 5e c5 78 bf
       -0.006533509334821778 -0.006047600413691047
000660 23 06 cf 70 5f bc 90 bf df 13 1c 7f 53 04 74 3f
       -0.01634358526258074 0.004886938246049659
000670 e3 26 63 6f 33 32 58 bf 51 e5 1b 77 50 95 76 3f
       -0.0014768125816310644 0.005513490979632011
000680 4d 3b f4 c3 e1 7c 84 bf ba 3a 66 80 78 88 86 3f
       -0.01000381831411592 0.011002484720646567
000690 3a af 5c 51 a9 07 8b 3f 13 b4 ec b7 ef 23 81 3f
       0.01319820670649784 0.008369324493822139
0006a0 5a d1 f2 3d 88 a3 6f bf 48 22 b6 b5 dd f3 98 bf
       -0.0038621579147621156 -0.024367775169169797
0006b0 e9 b6 39 24 8f 89 95 3f 53 ab 03 68 43 22 41 bf
       0.021032559000039894 -0.0005228833324769456
0006c0 26 67 11 35 d1 92 81 bf 61 32 2a 04 3a 9d 83 3f
       -0.00858081286621688 0.009577229740238726
0006d0 f4 06 ce 78 d8 d6 92 bf f8 96 d3 24 a8 35 30 bf
       -0.018397695897426083 -0.0002473388202147565
0006e0 65 20 6e 73 73 33 7c bf db 34 8f 81 be c5 7e 3f
       -0.006885004978251262 0.007512802280826149
0006f0 0c 8e 02 1d 27 86 89 bf 95 af c8 49 27 56 90 3f
       -0.012462907383741693 0.01595364940492024
000700 26 6c 74 8f 38 2d 53 3f d3 81 7b 5c c4 9a 85 3f
       0.0011704494807591808 0.010549100944843659
000710 5a c0 18 81 7a 98 9a 3f 9c 91 f6 41 79 cc 8f bf
       0.025972284440456718 -0.015526721311126583
000720 e7 e5 80 a5 50 c9 63 3f af 5a 2d e2 1d be 42 3f
       0.002415330422107276 0.0005719800868558468
000730 d2 7e c5 8d d8 7e 7f bf 2e 1e 42 88 50 85 7c 3f
       -0.007689329064618016 0.006963076190124746
000740 03 03 c7 fa 65 cc 6e bf d2 b1 31 7b b6 cb 79 bf
       -0.003759574107079168 -0.0062977913067751735
000750 85 6b 05 7b 0c 72 93 bf ba f8 8d 85 f5 db 66 bf
       -0.018989748962990233 -0.002790431532445484
000760 c7 22 c2 ba 26 19 8f 3f 95 6c 49 19 4d 90 8a bf
       0.015184691023266151 -0.012970545133774084
000770 0c b9 66 5c 8e d9 84 3f 75 99 61 d2 81 05 89 3f
       0.010180580324995712 0.012217535240961233
000780 95 86 9e f1 34 e8 66 bf 1b ec b0 e9 fd f8 75 3f
       -0.0027962717112622417 0.005364410254567377
000790 bc 4c 2c a5 5d 69 77 3f e7 e7 f6 f2 b1 db 66 bf
       0.005715719033804575 -0.0027903056686371277
0007a0 28 51 38 a4 3d cf 84 bf b7 5c 17 e4 8d 2e 77 bf
       -0.010160905431839298 -0.005659631978651428
0007b0 dc 11 ba 01 a5 6c 75 bf c6 2f 51 b6 40 9f 82 bf
       -0.005230564649199878 -0.009092813075902383
0007c0 36 37 cd 76 b7 4d 77 3f 18 f8 f8 c5 9d 99 86 3f
       0.005689350754279057 0.011035187343733141
0007d0 a7 9f ae c9 e6 42 8a bf e2 ee 0b 7c e3 35 90 3f
       -0.012822917013025249 0.015830568739132363
0007e0 11 fa 38 65 99 fd 4c 3f 0b 48 7f ec 28 28 91 3f
       0.0008847235680560802 0.016754760203021173
0007f0 80 eb 2f 87 81 8b 93 3f d8 c6 64 9e 3e 36 75 bf
       0.019086860538645833 -0.005178684811015542
