trained_rbm/rbm.pen+lbl--top.bias_h.npy (npy, 16128 bytes, 1 tensors)

array f8 [2000]
00000000: 3845 3d8f a969 683f d146 e3d1 60e7 7d3f
00000010: 6141 6450 085e 79bf 459a 014f 115e 6abf
00000020: dc20 43c2 6963 8b3f ca3f 3850 3882 883f
00000030: f7b2 20fc 4893 623f 97e8 01ef 9f07 7cbf
00000040: 2e14 5f11 d85f 613f e856 f076 bf36 7a3f
00000050: 78c0 46ab ff19 823f 70c7 9205 39ec 4cbf
00000060: 1ad0 7ab0 e56e 44bf a3e2 100d d7a8 5bbf
00000070: c39d abb6 4a09 843f de0f a38e 6c13 5cbf
00000080: 8737 4846 1f14 8d3f d2f6 3a28 919f 823f
00000090: 3af0 a3ed 114c 913f 2a84 8dbc 8ce8 85bf
000000a0: b292 4131 c592 78bf 030f 234c f44f 863f
000000b0: 269c 1a12 7d1b 72bf 885d c094 d4e2 84bf
000000c0: 143c 6952 bbcb 723f 2179 ad6c 7ea9 5e3f
000000d0: fc88 0596 0177 92bf 155d c38f d07f 713f
000000e0: 3a07 c4fe e05b 873f e0af 330e 97e9 55bf
000000f0: f85a 9a2b b71f 91bf 1da1 dd39 a268 41bf
00000100: 928b b715 2d19 363f 3b88 7876 4e25 963f
00000110: b30e 04e8 1d6a 793f e58b 859c 93f4 83bf
00000120: 475a 003e 91c3 16bf 349f e4c9 1e69 803f
00000130: 70e7 de59 eec9 79bf 6c05 2346 0b53 743f
00000140: b888 e6b1 fafd 5abf 030f ebf4 9cf4 603f
00000150: 6425 f0f0 6e82 703f 03b3 2377 d306 76bf
00000160: 4e56 d44d e3af 733f a82b 0326 2ce3 49bf
00000170: d818 57d8 8056 723f e576 d93d f362 7fbf
00000180: 2741 59c4 3421 223f 2c4d 4d60 0131 543f
00000190: 8c9b db48 8dec 393f 376e 2044 03f4 65bf
000001a0: 8421 f403 2449 64bf a8b7 0fcd 2f7b 243f
000001b0: e5a1 c2de 97dc 98bf ea00 2dca c1db 8abf
000001c0: 6302 a625 8aa7 563f 7b9f ea09 dae7 893f
000001d0: 690c 3f04 e1ac 5cbf c3f7 efeb e34d 853f
000001e0: 9471 4629 f182 90bf 431b 8c57 70b9 83bf
000001f0: 93c7 6824 43cc 773f 8516 15bf b731 8abf
00000200: 2553 cc3d 34e9 84bf c170 5fe1 3922 82bf
00000210: 82e1 b643 a08b 923f cca8 4283 5a2e 923f
00000220: c4ce 1ca0 c8d6 683f 076f baaa 23b0 893f
00000230: b177 2deb 64b1 74bf 5f7b 0fc0 fac9 6ebf
00000240: 201c 1964 9df8 46bf dfbf ecca 6f07 3bbf
00000250: 2a8f f440 796d 90bf a445 2a95 f129 85bf
00000260: 0786 99cf 0cd3 7e3f 6a61 43fc e175 603f
00000270: 1120 c3b9 e742 7cbf ddeb 7020 1b66 73bf
00000280: 87c4 d8ba 6f69 8cbf 5882 2a3c 2885 87bf
00000290: 5f69 e701 4933 573f df39 29ca 615c 823f
000002a0: 83af f61c eb96 91bf 9a8b 68ad 1642 7ebf
000002b0: 6d38 16e3 1f9a 6e3f d367 9de5 3776 713f
000002c0: 33ac 004f 3cb3 863f 037d 7f20 e526 6b3f
000002d0: aff1 9989 64c5 52bf 6fd7 ee9d c95c 713f
000002e0: 7bbd f39c 4348 66bf f36a e47a ca4f 713f
000002f0: 50da c9cc a4d0 6cbf 488c 2d8c b926 313f
00000300: e6ba f408 5f35 803f 7aba 85b2 1f04 943f
00000310: 8a2a 0a05 e279 5d3f e920 849c ec07 703f
00000320: 75ac 3006 a0a5 80bf 20e7 857d 9d7e 943f
00000330: 2e67 b0c1 1106 733f 40cd 0584 e10b 69bf
00000340: e7d0 b906 1968 86bf 286d ced5 8144 93bf
00000350: 17e3 8e7f 5f68 833f df4f a7d5 01a8 7ebf
00000360: 967a ba4c 5045 703f 1bd4 741d 1fda 6cbf
00000370: 77b6 9099 6fc7 47bf 2123 83b7 98c2 88bf
00000380: 31d2 7ac9 04c7 6fbf b392 b89e ea7f 90bf
00000390: d33a 0b9c 119c 743f 5140 a2fb a15a 65bf
000003a0: c913 09c3 ca10 853f 4149 e390 cb11 743f
000003b0: c195 965f 2c64 613f 1b17 74d2 a9af 8e3f
000003c0: 95c5 70d8 40ba 74bf 81de 7b7a a5c5 77bf
000003d0: f831 8ddf 7b69 463f 8ee5 0735 78ec 4e3f
000003e0: 5f3c 4075 fbbb 813f 64f4 3055 93ed 67bf
000003f0: e79c 8a7a 3d0e 843f 019a feea 4f93 8d3f
00000400: d323 919b 8f22 973f ac20 2a74 5a01 71bf
00000410: 2c81 d5bb 65c3 953f e591 a289 7114 60bf
00000420: de4f f72c 3b53 7f3f c91b 237c 1600 30bf
00000430: 33a7 0cf9 c85c 843f 8f8c dc67 c945 70bf
00000440: 7b42 5c2f 6ac6 653f 1094 724e bb74 683f
00000450: dfdd 18f2 148e 7d3f b6d8 bd47 7567 7abf
00000460: a941 6919 21db 85bf e045 d502 5a51 7c3f
00000470: 0868 1f57 d80b 903f 358f 7207 347f 81bf
00000480: 4cde eedc 803e 73bf 2123 b4e3 0f3e 88bf
00000490: 710b ef5d 1e19 60bf ad09 2581 a3e1 64bf
000004a0: bfbb d093 75d8 64bf aa14 81f3 195e 85bf
000004b0: 7e8b 0002 8dc0 543f bfa6 5d71 cf0e 693f
000004c0: daa1 08e7 5a91 873f 48b1 ae5c 1329 8e3f
000004d0: 1149 0a1a 87d7 353f 1019 701c 0676 503f
000004e0: 9ea2 98ee 89dc 8e3f 7107 cefa 3fbb 82bf
000004f0: 60a4 e774 16ba 873f e46d 6a71 7250 623f
00000500: 4cb0 bc35 3111 923f 849d c4e6 b6fc 7bbf
00000510: 5b23 27ba 9585 77bf 50aa 1051 2344 8ebf
00000520: e183 ef63 c8be 003f d60d 135b 642a 90bf
00000530: d8a8 4ead e34b 923f 1bca fbbf 7e34 7bbf
00000540: c03e 92f0 c837 2dbf f039 f154 ae8a 203f
00000550: 215b 0646 203c 933f a17f be81 de91 7abf
00000560: fc87 28f3 e0a1 80bf 2f93 5bfc 21f8 813f
00000570: 9baf 420e dd1a 5fbf a55d a226 cc8b 8fbf
00000580: 1dfc 6312 6602 843f d338 513b 6081 733f
00000590: 4dcf e38b 9dd8 8bbf a16a 2a09 eac1 7bbf
000005a0: 8acc e98d da2e 54bf cc67 04c8 05cc 76bf
000005b0: 3ca7 c4a7 3b0b 58bf 8992 4780 4c72 82bf
000005c0: 8a8b 070f 7c3b 5a3f 0332 1ba6 16c7 733f
000005d0: 1598 f890 15b4 85bf 41f4 0496 9ede 68bf
000005e0: 4136 5bf5 0ab7 77bf e178 199c d0a1 72bf
000005f0: b4ae 0849 5ad0 703f 2225 cd45 e309 633f
00000600: 93e4 406d 1e1f 6cbf 01be 4223 3ea6 803f
00000610: 0907 1607 b7b2 62bf 251e 033b c640 68bf
00000620: 1872 e26d 7961 90bf e554 36e8 6b71 8c3f
00000630: d275 5e89 54fd 743f 30ec afb3 56a9 8ebf
00000640: eca2 33fb b335 8ebf 667d 3129 5f3c 703f
00000650: 61a5 9c0b d1e8 643f d598 5be0 cc57 913f
00000660: f961 f1b0 c043 713f 772a a90b 98e4 6c3f
00000670: 85cd a7af a809 5cbf 8721 ac87 1e10 4ebf
00000680: 5bbc 59ce d727 5bbf c4f0 cea5 ca4b 86bf
00000690: 1e79 95a4 1d92 8e3f cfb4 213d 8898 723f
000006a0: 8371 7942 5f1a 85bf 3b21 c898 7f3d 8ebf
000006b0: 417f c71e ee56 81bf 61dc d497 d4d5 90bf
000006c0: 2fbb da99 a863 73bf a571 5c38 bde5 40bf
000006d0: 9a91 f583 427d 813f 331c bc2a a9af 563f
000006e0: e37b c208 f247 78bf a902 9905 abe7 713f
000006f0: adc8 2fdf 9583 84bf 552f ec43 59e8 8bbf
00000700: c365 8d45 b896 7c3f bc53 b47c af26 5cbf
00000710: 0ac7 1bb7 f8f2 87bf a348 4184 0d76 713f
00000720: 3121 040d 1bf6 1b3f 1edb c274 bbb1 90bf
00000730: 15c0 fb2f 499a 733f ecda 6eeb b581 763f
00000740: 456d b792 d7bc 53bf e539 7320 4ead 92bf
00000750: 4cd0 eb54 7309 743f 87b0 36f2 9eb3 66bf
00000760: 22b8 9332 c541 62bf 64e5 09ea f2dc 84bf
00000770: 83ee 4a27 f29a 77bf 65fc 9ef5 4f4a 6fbf
00000780: c07a a6c5 2fb9 843f 01fb 6324 40cb 753f
00000790: 7940 37f6 8eca 6e3f feef c7cf e98b 96bf
000007a0: 4787 4a50 4d78 6ebf b1f7 e025 1550 6c3f
000007b0: 5501 0bb2 ca6f 843f 3126 248a 7062 1f3f
000007c0: 2ad2 db98 88e0 7c3f 3c84 c663 17ed 83bf
000007d0: 8c5c 9d10 8e81 9d3f 7495 edf2 ee47 533f
000007e0: 4e0b 44b3 e44a 833f 0851 e048 9064 55bf
000007f0: f7ce 20dc 05d1 8fbf 6089 2fc6 9b24 903f
0.002980071230844896 0.007300737574227959 -0.006193191982916652 -0.0032186830576848313 0.013373209229385834 0.01196712488948028 0.0022674966321772866 -0.0068432090193885275
0.002120897300275113 0.006399867924320658 0.008838651098671088 -0.0008826521326652358 -0.0006235715418001526 -0.0016882038219262839 0.009783347797067138 -0.0017136154297512289
0.014198536236132998 0.009093412437660407 0.016891746644418705 -0.010697459701704732 -0.005999346049155351 0.010894688199534657 -0.004420746381277351 -0.01019826964333849
0.004588824964755229 0.0018714651693794786 -0.01803209760817824 0.0042722842155946865 0.011405713820298414 -0.001337430491555651 -0.01672254756575861 -0.0005312721366239923
0.00033719397262482146 0.02162668798531107 0.0062047165122326884 -0.009743836607134024 -8.683752048486384e-05 0.008013000999724441 -0.006296092089479774 0.004962009467079791
-0.001647467440854684 0.0020697656212592687 0.004030640949176021 -0.005377603565858593 0.0048064116538362855 -0.0007900205200937942 0.004477027226533724 -0.0076627256035785895
0.00013831872108705756 0.0012323869170430364 0.00039556931811406885 -0.002679830912723859 -0.0024762824465406914 0.00015625914104993904 -0.024278996440132778 -0.01311446569673121
0.001382717999689608 0.012649253299357835 -0.0017502019336326452 0.010402470243203404 -0.0161245042269101 -0.009631040260058682 0.00581003405982185 -0.012790141600486091
-0.010210426460199049 -0.008854343595821825 0.018110756047208472 0.01775494981908636 0.0030321043458572967 0.012542990348542128 -0.005051988805318362 -0.0037584207025100204
-0.0007010239134580577 -0.00041243056596140625 -0.01604260882335421 -0.010333907475145683 0.007525491755218556 0.002009335878124731 -0.006899743250137661 -0.004736047710191618
-0.013872979058847669 -0.011484445892450498 0.0014160359347586621 0.008965267164197264 -0.01717727054862862 -0.0073872457346934265 0.003735601691636828 0.004263132426638411
0.01108405223938833 0.0033144450317049725 -0.0011456949054312428 0.004238879743686626 -0.0027200050895925232 0.004226485192954088 -0.0035174578427430783 0.00026170759172411797
0.007914297543349002 0.019546981116429475 0.0017990786765575161 0.003913807166334695 -0.008128404797466108 0.020014248644179777 0.004644460069380503 -0.0030574230769901123
-0.010940738218075242 -0.01881602160902421 0.009476419525400055 -0.007484442869515078 0.003972352667601561 -0.003521977206811145 -0.0007256789132321213 -0.012089913463925907
-0.0038790791985212837 -0.01611296266323121 0.005031651294031564 -0.002606693623484126 0.010285934521684486 0.004899783305705009 0.0021229616802027344 0.014983488783865398
-0.005060437491054688 -0.005803724670606082 0.00068396137712906 0.0009437167119010091 0.008659328952516697 -0.0029209020226788496 0.009792785932701565 0.01444113193413177
0.022592777128270413 -0.0041516812658601125 0.021253194417455365 -0.001962873223492633 0.007647734789731657 -0.000244145860176234 0.009942598438630412 -0.003972803822566053
0.002658088104802223 0.0029853494957756757 0.007215577906712649 -0.006446321607532271 -0.010671862209307674 0.006913520436982762 0.015670185391947228 -0.008543402173308937
-0.004698279734774834 -0.011837124000992074 -0.001965102491767672 -0.0025489991614062375 -0.002544622081152664 -0.010433390372904878 0.0012666108159542218 0.0030588199251056765
0.011507711577977742 0.014726783052389295 0.00033328102475950564 0.0010047015837258456 0.015069081872824793 -0.009146213380293951 0.011585402910855247 0.0022356257644113742
0.017643708138322986 -0.006832804163685483 -0.005742630836217478 -0.014778400336657033 3.19390205658699e-05 -0.015786712702505167 0.017867619946323327 -0.006641860119759114
-0.00022291496160108636 0.00012620332788278133 0.018784050249077148 -0.006486767928350818 -0.008121259136775187 0.008774056924673338 -0.0018984946009749984 -0.015403361252807122
0.009770200191722417 0.0047620543528649915 -0.013596754867172623 -0.006776727869374583 -0.0012318739242374332 -0.005565664847631834 -0.0014675219127390912 -0.00900707022169313
0.0016010962973431486 0.004828537437515215 -0.010597389685312245 -0.003035840738589119 -0.005789797598209357 -0.004548849946870188 0.0041049505967227125 0.002324050800244352
-0.00343280737618252 0.00812958283526566 -0.0022824835547802275 -0.002960574311234659 -0.015996835071392906 0.01388820936589714 0.005124407025417681 -0.014971425398462385
-0.014750867942397737 0.003963824961004425 0.0025524218480269954 0.01693649405833571 0.004215004634794622 0.003526970828976513 -0.001711287243435362 -0.0009174489090080653
-0.0016574485283873594 -0.010886748490399951 0.014927131257249256 0.00453999727515715 -0.01030420705426916 -0.014765736436871726 -0.00846658736639905 -0.016440698401506974
-0.004733713719970819 -0.0005156682898106903 0.008539695407940685 0.0013846542378261994 -0.005927987524187525 0.004371326498188091 -0.01001660430299397 -0.01362676371129338
0.006979675112995523 -0.0017182077161283912 -0.011693900192287571 0.0042629745476735785 0.00010666408639193184 -0.01630299472955265 0.004785810364168715 0.005494795440361893
-0.001204691429726194 -0.018239231806370788 0.004891825212997313 -0.0027711967865880513 -0.0022286273493739165 -0.010187051551144584 -0.005763002311762857 -0.0038196145733020875
0.010118840426739495 0.005320787959361751 0.003758696768024147 -0.022018101984926368 -0.0037194738418557002 0.0034561551138087778 0.009978850897255734 0.00011972247969906852
0.00705006941074208 -0.009729559643178225 0.02881452537925759 0.0011768182264061096 0.0094201914985256 -0.0013057145147331046 -0.015535398273733387 0.015764650317472984
