trained_dbn/dbn.vis--hid.bias_v.npy (npy, 6400 bytes, 1 tensors)

array f8 [784]
000000 57 b9 27 aa 6e 4e 43 3f 24 2e 8b 2d c0 83 89 bf
       0.0005891838412120193 -0.012458325757868378
000010 87 cc d1 95 83 cc 76 bf b8 92 4e 76 6e 58 86 bf
       -0.005566133503737031 -0.010910857186737885
000020 98 fa 42 9c 49 be 91 3f df 1d 35 47 e1 5b 82 3f
       0.017327451860860238 0.008964309678630876
000030 07 3a 1e 33 85 de 75 3f 98 92 a5 eb aa f7 77 3f
       0.005339165030717747 0.005851428659614875
000040 40 73 30 0b 4f b6 44 bf d8 a0 f5 77 cf c6 8d bf
       -0.0006320844607930823 -0.014539357040760967
000050 72 1e c5 70 e3 e4 85 bf 78 85 25 c2 8f 9e 79 3f
       -0.01069047630211559 0.006254731708709264
000060 72 6d 90 eb 25 ca 8b bf 73 a0 f8 cb d5 f8 72 bf
       -0.013569160701129877 -0.0046318389354739085
000070 a3 7b 22 5a 9d f7 61 3f 0f 5a 47 9e eb 97 70 bf
       0.002193267181680851 -0.004051132568255968
000080 5e 7f 11 30 76 54 70 bf a3 3d 78 10 48 a2 74 3f
       -0.003986798926319894 0.005037576199824842
000090 e6 f4 fb 8e f3 c4 80 3f 84 98 18 66 6d 5f 89 3f
       0.00818815498450438 0.012389044454789173
0000a0 95 a4 3b c6 0d 6e 39 bf 88 79 7a fe 11 b4 88 bf
       -0.00038802944457800556 -0.012062206820073099
0000b0 0a 76 8c bb d7 92 75 3f ee ec 9b 4f 28 34 93 bf
       0.005266993241801918 -0.01875365243811882
0000c0 3b 73 7d af f7 95 7f bf 1f 0a e4 a3 7f 37 70 3f
       -0.00771137954856443 0.0039591775841949775
0000d0 1f 67 ab ca b4 44 96 bf f2 22 48 e9 12 b5 6b 3f
       -0.021746468419997386 0.0033822411880958187
0000e0 b5 8a cd 1f 1c 3a 67 3f 73 3d c3 a4 b7 f3 8b bf
       0.0028353261281364958 -0.013648447719247092
0000f0 58 dd 50 d7 c2 52 8e bf 97 1e 38 7e 35 cf 82 3f
       -0.01480629176704322 0.00918428222122651
000100 bc 03 6c 70 23 69 8f bf 73 5f a3 80 b2 79 71 bf
       -0.015337254398675053 -0.004266450190890103
000110 f5 2c a8 5f 9a 03 94 3f c5 52 66 35 0b c0 52 3f
       0.01954499443858722 0.0011444196185027994
000120 5f 17 c5 80 e0 54 55 3f 44 d8 46 61 30 2e 73 3f
       0.0013019745266133682 0.004682721123051851
000130 b1 44 09 87 ac d7 8c 3f db ee cd d1 20 88 88 bf
       0.014083240385988157 -0.011978393938754042
000140 ea 64 f8 e2 5d f5 6c 3f 0d 3c 52 d8 c3 e6 7b 3f
       0.0035349687311848526 0.006811871547269821
000150 a1 1f 5f 86 0f 93 46 3f d2 b0 8c 0f 76 6f 6c bf
       0.000688917713653748 -0.0034711175798261907
000160 bc 24 d7 34 1d ce 97 bf 02 8b 50 50 52 e4 43 bf
       -0.023247200346109706 -0.0006070520327095821
000170 3e d6 ca e1 a4 f4 64 3f e1 ce 48 13 1d cc 83 bf
       0.0025580616332614705 -0.009666659499181164
000180 81 fb 77 b4 ed 0d 90 bf 9a aa 83 74 70 3d 61 bf
       -0.01567813314431588 -0.0021044918431603723
000190 0f 58 9a a7 f1 53 62 3f 76 4e db 5f 31 97 64 3f
       0.0022372932260834653 0.002513500627950023
0001a0 40 fe 6f 1b d8 0d 4e bf 78 f5 dd 27 7f 1d 81 bf
       -0.0009171776972606918 -0.00835704174437056
0001b0 e7 31 61 75 9f a5 6d bf 5e 9a 0f 09 5a a9 16 3f
       -0.0036190142082317303 8.644687683521379e-05
0001c0 99 8b 6a 6c c0 1c 9f bf 4f 1e 42 14 54 7c 76 3f
       -0.030383116357039695 0.005489662584416146
0001d0 ba eb 4e 78 c0 f2 77 bf fa b3 d4 0f 8f 8f 91 3f
       -0.005846740566023573 0.01714919599651308
0001e0 3b b5 b9 9d 30 6f 77 3f 5f a3 14 93 03 2f 9b 3f
       0.0057212733332623845 0.026546531536186687
0001f0 49 72 2e 15 4e 61 53 3f 31 47 17 91 aa 85 74 3f
       0.00118286729114127 0.005010286594783684
000200 8d 16 41 2d a5 98 94 3f 28 0a 8e a1 b5 ab 10 bf
       0.020113545310116044 -6.35938271340916e-05
000210 6c 29 7c d6 79 14 77 3f 80 e6 dd c3 59 c7 69 3f
       0.005634761742621879 0.0031468156075192266
000220 95 08 5c fb 6a 38 8c 3f 21 b9 60 0b 15 16 5e 3f
       0.013779483600505219 0.001836319495406587
000230 2a 91 f8 7d b5 14 8c bf ea ad 2c eb 77 fe 9a 3f
       -0.013711374193981902 0.02636134503261004
000240 f7 5f 47 73 fb d4 73 3f 2f 1c da d5 ba 88 91 3f
       0.004841787555470481 0.017123145391931324
000250 40 50 0b dd 9c 0a 59 3f 9c 75 a7 d6 99 d3 85 3f
       0.0015284091825167462 0.010657502997612416
000260 f0 ac 74 e3 36 21 7d bf 9b da 31 e8 ef eb 84 bf
       -0.0071117538530345165 -0.010215639375230004
000270 28 e2 fc 10 0b 8e 53 3f f8 ba b0 b4 0f 24 85 bf
       0.0011935337133320931 -0.0103226878182716
000280 a3 4f 71 b4 b1 a4 90 bf de fc 1e 23 a9 26 89 bf
       -0.016253258360236732 -0.012280770668324722
000290 69 f9 92 ea b5 f9 85 3f 17 89 8c d6 ed 09 71 3f
       0.010730191441663721 0.004159859709746769
0002a0 b1 7b c3 f9 2b eb 86 bf 5e eb 98 25 b9 d9 6e 3f
       -0.011190742072754252 0.0037659279012393484
0002b0 33 ce b3 88 b2 5e 63 3f 1b 32 67 de 9d 73 8c bf
       0.002364491175848271 -0.013892396306709512
0002c0 e3 62 c7 9b b8 fa 82 3f 1a 18 15 37 a9 b2 95 bf
       0.009267275098794275 -0.021189350115740614
0002d0 c7 b8 e5 62 ec f4 87 bf 83 89 c5 86 9b 5a 8a bf
       -0.011697623031718852 -0.012868132639316304
0002e0 fe f8 38 8a eb ce 87 3f ac d0 b1 08 3e 33 7a bf
       0.011625137477605293 -0.006396524734658165
0002f0 ff 34 d0 88 d3 eb 7d 3f 33 58 bf d7 79 e1 95 3f
       0.007304979616504114 0.021367934983423886
000300 b9 c6 07 b5 63 38 31 bf 46 f9 cf d0 75 70 51 bf
       -0.00026276048904981146 -0.0010644102615056813
000310 03 c4 8a a9 b6 18 80 bf 23 51 8b 87 93 ed 94 bf
       -0.007859637307179318 -0.02043753161235985
000320 e3 da 73 9b 3b 1f 87 3f 04 18 08 fb 4e 36 7d 3f
       0.011290040666137318 0.00713187076372002
000330 ac 2a 0f 0b 0e d9 61 bf b2 c3 23 ed b1 46 84 3f
       -0.0021786951333287643 0.009900465058736294
000340 3f 6f 6d 8c cf 56 70 3f 9c e3 11 f3 8b d9 94 3f
       0.003989039169791485 0.020361124716575682
000350 77 0e 98 56 06 95 76 3f 67 55 f0 04 25 08 75 3f
       0.005513214834994443 0.005134720427141338
000360 d8 eb 91 dd af c0 83 3f f6 6a 8c 2e 55 0a 8d bf
       0.00964486498764032 -0.014179864390418722
000370 41 78 17 83 87 04 84 bf b1 1f e0 3c 62 e9 76 3f
       -0.009774264038181825 0.005593665830026782
000380 e5 e8 bd 29 0c 5d 8e bf f5 77 a6 ed 73 11 78 bf
       -0.014825911544666013 -0.005876019330029782
000390 cd f3 a4 d3 e7 9e 7f 3f 1f d2 58 5c 6a 84 57 3f
       0.007719903538881701 0.001435378902340585
0003a0 a3 70 19 a3 b3 a7 5b 3f 6c 54 bf 5f af 74 8a bf
       0.0016879324215528866 -0.012917871579626282
0003b0 40 40 8c b9 21 3f 80 bf 6f ca 90 bf 4d 48 90 3f
       -0.00793291423318021 0.015900816743121767
0003c0 2a c1 10 77 4a b2 5c 3f 21 19 fb 3f bb e3 77 3f
       0.0017514922331081741 0.005832416005153968
0003d0 bc df ed 9e 15 1b 86 bf f7 75 55 ef ab a1 6b 3f
       -0.010793847000726824 0.0033729894736740334
0003e0 3f 31 55 37 4b 18 66 bf 8d a5 1e e5 d7 14 85 3f
       -0.002697131067782049 0.010293661765745888
0003f0 10 af 8d 17 c1 a5 71 bf 92 c2 9c 07 d3 fb 5b 3f
       -0.004308466210982478 0.0017079888188612819
000400 43 7a 36 e0 ee ec 6d bf e8 7d 50 af 32 cc 7e bf
       -0.003653017572744306 -0.007518957126222393
000410 a1 4b e4 37 a7 ec 90 3f 30 51 cd a7 08 fe 87 bf
       0.016527760301936593 -0.011714999791060693
000420 d0 0a 02 15 4d 74 79 bf 00 03 7c a8 22 df 5e bf
       -0.006214428998762414 -0.0018842543085499375
000430 da d7 d7 c6 d3 ae 83 3f 51 62 00 e9 bf 72 88 3f
       0.009610800271712284 0.011937617586270795
000440 c0 9a cc c2 0a 32 82 bf 0d dd 58 c1 bd 12 66 bf
       -0.00888451010685054 -0.0026944833905663324
000450 50 0b 48 ac f0 28 8b 3f 16 8e 48 78 1c 64 76 bf
       0.013261680848705076 -0.005466567240123085
000460 0a c2 72 16 45 fc 76 3f 6a cb 6e 13 0f 73 66 3f
       0.005611677049430339 0.002740411229262764
000470 2e 97 ba bd b0 b3 6b bf 85 f1 64 97 37 34 83 bf
       -0.0033815814948238354 -0.00937694006699342
000480 27 66 ea 1e ce 45 74 bf 50 bb 8d 0a 3d 83 82 bf
       -0.004949383887515014 -0.009039379963466182
000490 3f 2a cc 94 07 9e 90 3f b1 54 8a 05 0b 55 79 bf
       0.016227835137252674 -0.0061846190007105875
0004a0 77 bf d8 ee c0 e3 8c 3f f8 9f e5 db 9f 67 64 bf
       0.01410628060247608 -0.0024908182378346987
0004b0 40 12 63 65 24 b3 92 bf aa d9 27 8d 45 c0 7c bf
       -0.01826149815384981 -0.0070193020678658655
0004c0 a1 ac 5d 7d 59 d6 87 3f 85 e3 f4 75 ab 9a 90 3f
       0.011639308107723347 0.01621501834344798
0004d0 4d 2a 7e 15 88 e9 0c bf d1 46 d4 4e d2 a7 77 3f
       -5.514570756222758e-05 0.005775281443918438
0004e0 13 55 37 b8 97 24 7c bf 33 06 ba c9 a6 ac 7b bf
       -0.006870834974923373 -0.006756450191120633
0004f0 4d bd 15 90 e1 2e 9a 3f 00 d9 22 99 35 6e 77 bf
       0.025569462222333517 -0.005720338218614396
000500 84 49 df f2 b4 6d 86 bf c4 73 6c 6c 8e 7d 6b 3f
       -0.010951436673995792 0.003355768366772401
000510 32 55 02 6f 62 ab 77 3f 90 84 30 96 0e e8 7d bf
       0.005778679376949912 -0.007301384906015632
000520 0a 80 d2 44 4c 6f 8a 3f 31 dc c2 c2 e7 9b 83 3f
       0.012907596445359121 0.009574709540499967
000530 8a 65 6d a3 29 eb 80 bf 81 bc e1 f0 61 c1 75 bf
       -0.008261037158876734 -0.005311377126516637
000540 2f 5f 33 bf 43 f9 86 bf 2a 7f 4b 05 f7 d0 76 bf
       -0.011217622063142222 -0.005570378231567289
000550 e5 ce 5a 7b 6d b2 6b bf a6 3a d8 4c 3b c6 73 3f
       -0.0033809793775051327 0.004827720300012805
000560 e9 d8 c4 af 55 88 7f 3f 3a 73 d6 5b aa bc 8a 3f
       0.007698378289481258 0.013055163314498953
000570 61 5b d4 f4 c8 a2 97 3f 7f 59 0e 65 ee 11 60 bf
       0.023081912940223662 -0.001961675276514529
000580 73 cd 5e 34 40 0e 77 3f 83 35 3d b7 89 4a 81 3f
       0.005628824996097281 0.008442951111329538
000590 aa 8e 63 4a 4f 17 64 3f ee 8d fe ff c8 c4 92 3f
       0.0024525211948559127 0.018328800797133775
0005a0 78 dd 7d 21 a3 b0 91 3f 65 93 d3 47 66 7c 81 bf
       0.01727538005749582 -0.008538054530114978
0005b0 ee fc 8d 6e d4 8b 7d 3f 88 fb 24 6e 84 2e 86 bf
       0.0072134302253055015 -0.010830912219373948
0005c0 bb 89 b9 60 50 30 7b 3f fa cd d4 66 17 ca 88 3f
       0.006637872672941854 0.012104208779965642
0005d0 72 b9 29 49 84 89 70 bf b8 cd d6 88 82 92 6e bf
       -0.004037396184328622 -0.003731970739602377
0005e0 a3 43 ca 98 37 3b 58 bf 86 d2 67 bd 12 00 63 3f
       -0.001478962224755722 0.002319370843219484
0005f0 f2 f6 e0 7d e4 83 79 bf 8a 9f ee e6 74 29 93 bf
       -0.00622929815841443 -0.018712832064607755
000600 c4 54 92 44 eb 5b 6b 3f df b0 b6 42 17 bf 8c 3f
       0.003339728839430652 0.014036351893843278
000610 53 39 48 d5 de 4f 68 bf b1 91 ea c5 d6 e0 6e bf
       -0.0029677726945528753 -0.0037693209445299404
000620 60 bd 62 b9 f3 9b 67 3f 47 54 09 d4 6f 0e 6d bf
       0.0028819809186512585 -0.0035469230790945746
000630 52 71 8b 75 dd f4 8d bf 9e b2 8b 8a a5 29 5e bf
       -0.014627199315719128 -0.001840984021494275
000640 78 48 49 9b 26 e6 8d bf 13 c2 8e 1b 98 bf 62 3f
       -0.0145991340770346 0.002288624844787765
000650 aa 9d ba b9 ca 10 80 bf e3 19 9e 9c bd 91 76 3f
       -0.007844528000829982 0.005510082884831099
000660 91 3e 6f d9 0b 48 7b bf 3a f9 8e f7 a8 7d 65 3f
       -0.00666050556806365 0.0026233959328855446
000670 00 21 44 a0 15 4e 79 bf 86 72 e3 43 17 a8 71 3f
       -0.006177982784955072 0.00431069457974032
000680 c7 0c a8 49 28 93 4c bf 3f 2e ac 39 74 8b 95 bf
       -0.00087203471349575 -0.02103978731160638
000690 4c 32 5b e7 90 2d 54 bf 56 a0 08 b9 c9 c0 8c bf
       -0.0012315669131793992 -0.014039588889389314
0006a0 04 a9 d4 5e d9 aa 6e 3f 95 d0 cf 1e 62 12 95 3f
       0.003743576575876097 0.020577939158059683
0006b0 fb c7 90 26 75 de 7e bf fa 81 bd ed fe e7 6b 3f
       -0.007536370868409743 0.0034065226627009145
0006c0 3a a2 94 2d 07 20 61 3f 5a 54 34 1b fb dc 86 bf
       0.002090467471721061 -0.011163675086701175
0006d0 44 67 b0 29 59 aa 19 3f 28 23 47 3a eb 63 6b bf
       9.790581900439877e-05 -0.0033435434617995648
0006e0 25 dd d3 56 cf 10 8f 3f d2 ad 24 ff 83 da 8b bf
       0.015168781125324113 -0.013600379203658006
0006f0 7a 72 c0 39 14 ca 7f 3f 17 f0 56 97 62 e5 99 3f
       0.007761076933118555 0.0252890972967493
000700 8c d8 a7 d9 98 d0 85 3f fc cd d0 21 1d 81 93 bf
       0.01065177358848881 -0.019047217549269732
000710 e3 7d ce f6 de 90 6e 3f 6a 77 96 71 f7 29 82 bf
       0.0037311892287588007 -0.00886910739319165
000720 77 1c b1 4d 48 9e 64 3f 93 1e 3c fa 97 9b 6c 3f
       0.0025168811967293775 0.0034921615896371188
000730 2c cf d9 e2 48 56 76 bf b4 e2 12 8f 20 24 83 bf
       -0.005453381263226292 -0.009346250883355146
000740 6a 30 93 ca 88 a6 7a bf f1 c7 14 45 83 4b 65 3f
       -0.006506475773857637 0.002599483858511491
000750 5a 27 6a 70 17 ef 71 3f c4 a4 36 a1 08 12 53 3f
       0.004378406104146604 0.0011639675402455455
000760 a9 af 90 72 a2 a6 79 3f 0e 92 cb 64 d9 3d 7d bf
       0.006262430725694581 -0.007139062113058715
000770 17 ea 4b 7d 72 30 74 3f 88 3e a8 48 31 ab 4e bf
       0.004929015373586163 -0.0009359350818289461
000780 5f e7 a4 82 72 8f 61 bf f9 6d b9 a3 21 77 82 3f
       -0.0021435963182313967 0.009016287621469653
000790 a3 9b be 65 a5 f1 88 3f 4e a8 8f b1 6a 77 7d 3f
       0.012179653327462797 0.007193962833278956
0007a0 e3 55 64 09 7f 17 8d bf 09 ca 3e 24 08 9a 96 3f
       -0.014204971765631796 0.022071959697948205
0007b0 1a cf e4 41 22 7e 4a 3f 52 27 b0 92 54 e8 60 3f
       0.0008084933540772638 0.0020639087501920584
0007c0 49 3c aa cd 65 58 6a 3f 16 e3 c4 74 71 fa 78 bf
       0.003215979418491642 -0.0060982162361191885
0007d0 f7 79 e4 06 fb dd 83 bf e7 9f 87 a8 3a 54 92 3f
       -0.009700738094179135 0.017899433647386245
0007e0 34 01 fd 0d f3 80 93 bf 3f 8f 6b 26 63 78 95 3f
       -0.019046590546396305 0.020967053623180517
0007f0 08 74 8c 2c 57 77 81 bf de e0 87 7f 4d df 57 bf
       -0.008528405234352845 -0.0014570481126821504
