trained_dbn/rbm.pen+lbl--top.bias_v.npy (npy, 4208 bytes, 1 tensors)

array f8 [510]
000000 79 25 40 1c 46 d0 73 3f a0 f8 22 62 ab 5f 83 3f
       0.004837297314233318 0.00945981877555041
000010 13 f1 c8 3c 93 c5 70 3f 8a a8 86 e7 3c 89 87 bf
       0.004094672342543032 -0.011492229285824846
000020 85 87 57 4f ad f5 61 3f 8e 97 1d 88 ad 8d 79 bf
       0.0021923432311589685 -0.006238630159577497
000030 12 14 c5 55 e4 7b 49 3f c2 a8 61 23 72 ab 72 3f
       0.0007777085225276778 0.00455803475606781
000040 ad 2f e9 88 51 20 5b 3f 0a c3 99 f7 05 6c 84 3f
       0.0016556545484886873 0.009971663111373558
000050 ee 3b 3c db 84 bf 3d bf a4 07 f5 fb 35 2a 81 bf
       -0.0004539203030028961 -0.008381292106267875
000060 5e 61 98 b2 9b 9a 51 bf af 82 8c fd 68 a8 94 bf
       -0.0010744591221563886 -0.020173683619875756
000070 4a 39 01 1c e9 bb 65 3f f7 b6 50 94 44 7f 8e 3f
       0.0026530793111653505 0.014891181732390886
000080 47 be 5a 27 53 5d 75 bf d7 85 76 78 4b 1d 83 3f
       -0.005215954608203405 0.00933321915983047
000090 df 7a 01 cd 65 23 85 3f 74 50 15 4e c7 dc 82 bf
       0.010321421927242223 -0.009210164137279465
0000a0 5c 7a a1 c1 ac cc 95 3f 35 b0 f1 cf e1 8d 8f 3f
       0.021288585012707237 0.015407337339830554
0000b0 38 ab 17 e4 68 75 49 bf 03 07 31 81 c3 eb 81 3f
       -0.0007769357836740825 0.008750464801895235
0000c0 58 a8 52 d4 5e 75 77 bf 23 c2 77 00 5c 99 6c 3f
       -0.005727167537012155 0.0034910962019625443
0000d0 ae 8c fa 66 48 b2 7f bf fb 03 00 e6 ad b5 8c bf
       -0.007738383122759247 -0.014018400746865103
0000e0 40 06 fb c7 04 68 76 3f 39 ad 88 5a c4 05 71 3f
       0.00547029369016766 0.0041558904709220685
0000f0 3c 77 31 03 97 78 83 3f c4 f6 40 67 2b 52 76 bf
       0.009507350716542733 -0.005449456733968187
000100 38 ae ce b4 9d 24 82 3f 05 b5 48 63 af ad 87 3f
       0.008858902054121306 0.01156174680462608
000110 34 e1 e9 bc 6f 0f 83 bf e0 52 12 ae 61 42 76 3f
       -0.009306786492047615 0.0054344001411165965
000120 9e c5 6e 23 ca cb 91 bf b3 77 c0 9d 68 4e 91 bf
       -0.017378958141937788 -0.016900667789847734
000130 33 a7 83 82 60 fd 71 3f 2f 2b 1b cb cb fc 62 bf
       0.004392029754152027 -0.0023178081836240576
000140 95 72 f8 93 f3 45 86 bf a1 c2 d0 8e ce 2d 8b bf
       -0.010875609353257413 -0.013270963414556749
000150 17 d9 9a 47 2f 8f 62 bf ea 3b 07 a3 06 2a 79 3f
       -0.0022655414039390964 0.006143594670404243
000160 67 3a 59 4f 50 fd 8b 3f ec e3 c9 cd 1f 9c 7a 3f
       0.013666751309895987 0.006496547921977385
000170 0a 5c 6e 86 f3 32 63 3f 40 a5 53 df 02 ab 67 3f
       0.002343631396296346 0.002889161691758929
000180 4d 97 a6 e7 6d 52 31 3f 4e 7e 7a 31 45 5a 7f bf
       0.0002643125841593666 -0.007654447828513945
000190 6e f5 b1 c6 bc 94 81 3f ee db 85 77 db d3 82 bf
       0.008584475339598465 -0.009193148217248006
0001a0 67 2e 3d 45 20 3c 82 3f 77 6a e3 e5 fc 24 61 bf
       0.008903743851667657 -0.0020928325094307604
0001b0 e1 73 6c cf 0e a1 58 bf c4 a0 38 cf 5b fd 73 3f
       -0.0015032429343542141 0.004880293493933322
0001c0 1c 6f 2b 15 0b 19 79 3f c8 71 bb 18 1a 42 90 bf
       0.006127398769162597 -0.015877158889326087
0001d0 c3 9e 78 f7 76 68 65 3f 87 6e cf 5f d0 eb 84 3f
       0.002613289219670496 0.01021540443792125
0001e0 61 dc 44 4c 65 2e 8d 3f d6 a3 b6 08 5d be 77 bf
       0.014248649015469352 -0.005796779073912147
0001f0 e7 c0 cf 70 3d 76 8e 3f 3a fe 38 8a 12 a2 81 3f
       0.01487396240733614 0.008609909861774335
000200 8a 8d b5 75 6f 12 98 3f ac fe 69 de 43 6d 61 3f
       0.02350782543125044 0.002127296978244283
000210 5e dd ca 83 6c 6e 6d bf 9e 2a 9b e0 91 ba 8f bf
       -0.00359269327449467 -0.015492572466788087
000220 48 ce 1b 20 fe 13 91 bf 1c da 77 ec 3f f2 8b 3f
       -0.016677828511957565 0.013645648387847813
000230 68 32 f8 8c c0 20 7f bf 5b 30 49 b9 46 54 8d bf
       -0.007599594260238797 -0.014320900468327282
000240 95 36 63 98 b5 db 87 3f d5 54 bb b7 29 60 46 3f
       0.011649531090735446 0.0006828502368657849
000250 7e ca 31 f6 80 6b 6f 3f 43 17 27 71 e8 c6 89 3f
       0.003835441473307554 0.01258641810717232
000260 e8 58 79 51 79 4c 78 3f 57 3d 22 15 7f b1 87 bf
       0.005932306193775917 -0.011569016296816654
000270 6c 58 4d 45 b7 e1 73 bf c7 e1 0f 98 bc be 6e bf
       -0.004853931332794752 -0.0037530597187435985
000280 b3 02 2b 4f 38 57 5b 3f 99 a6 57 fb 33 2d 81 bf
       0.0016687440772075568 -0.00838699923311319
000290 7a 7e 1d 5f 98 bd 5b bf cd bc 66 2c d9 fe 89 bf
       -0.0016931522372586592 -0.01269311587097235
0002a0 74 96 88 f4 5a 0c 71 bf 32 96 44 1a 68 29 97 3f
       -0.0041621735513551646 0.02261889133764878
0002b0 64 c5 16 78 47 88 79 3f b2 65 91 4f ca d3 61 bf
       0.006233481575166653 -0.002176184786134094
0002c0 cc 16 c8 ec 3d f6 91 bf 51 78 f9 79 22 75 8f 3f
       -0.017540900780679533 0.015360135409704297
0002d0 24 7d 76 8d 4c f3 72 bf 5f 5c fc 95 a5 0e 77 3f
       -0.004626559289504759 0.005629202670909355
0002e0 df a0 fe 4f 7f 0b 90 bf 07 5f f2 5a 78 e8 8c 3f
       -0.0156688587736945 0.014115276599383287
0002f0 fb 4a f6 3f 84 3b 5e 3f eb 44 f1 c1 bb 37 73 3f
       0.0018452445509395388 0.004691823413922362
000300 4a a5 aa 6c 4d 70 7c bf 71 86 c0 40 a5 a7 50 bf
       -0.006943037452097409 -0.0010165323065013632
000310 9a c6 e1 ff 59 74 24 bf b8 cf 9f 02 81 8f 93 bf
       -0.0001560554373472481 -0.01910211161153061
000320 9c f1 d9 b0 84 f0 8a bf 07 e5 f7 38 a6 3d 89 bf
       -0.013154064795565294 -0.012324617970977515
000330 13 7d 34 67 2b 11 77 bf cc 24 cd 8a c3 cf 3f 3f
       -0.0056316085276926385 0.00048540615062060417
000340 89 54 de 43 28 ac 76 bf b6 05 a1 69 fe 06 8e 3f
       -0.005535275731650143 0.014661777113476809
000350 d6 1d 9a f4 d0 4a 88 3f 63 d4 aa fd 45 1b 73 3f
       0.01186145063844794 0.004664681817918656
000360 b7 1e 4b fe d3 e5 6e 3f 57 e1 a7 38 f5 b5 6e bf
       0.0037716999525832756 -0.003748873660921397
000370 76 57 d5 5f b4 4b 78 3f 3c e2 9b 85 57 89 38 bf
       0.005931572520543207 -0.000374397151616832
000380 bb 56 81 96 27 d9 51 bf 23 3e 1f 65 c7 84 8a bf
       -0.001089371357030285 -0.0129485681281088
000390 f7 66 35 9b 77 ae 81 bf 73 63 e0 ef 1e 4c d9 be
       -0.008633551048365258 -6.031357541424391e-06
0003a0 5c ae c7 a2 98 a1 4f 3f 40 67 c3 a8 64 1f 6f bf
       0.0009653086941034494 -0.0037991491318337955
0003b0 51 6e 06 1e 95 85 93 3f a3 72 0f 58 a0 5f 83 3f
       0.01906426425703806 0.009459736525905987
0003c0 ac 44 14 47 f7 96 84 bf cc ad 62 29 7d 26 6c 3f
       -0.01005356965700551 0.0034363216937742577
0003d0 1a d5 d3 01 aa a1 86 bf e5 f9 f6 c3 93 08 3b 3f
       -0.011050537281770679 0.00041249854617922264
0003e0 ea fa 80 58 ae 98 4f 3f 56 ad ee d3 05 98 80 3f
       0.0009642459199382368 0.008102460413133155
0003f0 0c 30 65 57 5e 66 63 3f d2 75 2f 5e 2c 4c 71 3f
       0.002368149052164986 0.004223035156397841
000400 71 ad 2b 63 d7 b0 75 bf ac d2 a7 8b d3 5c 7e 3f
       -0.005295602185224056 0.007412744855618197
000410 ea 93 ee 86 b2 32 80 3f 36 7d a7 2a ab 4d 4b 3f
       0.007909197562023313 0.0008332334303381764
000420 fa 09 8c 1e 13 8a 71 3f 46 cd f3 3c 10 32 93 3f
       0.004282068905697484 0.01874566432975413
000430 89 bc e1 87 4f d4 88 bf 7c 7a 0d 00 1d 08 8a 3f
       -0.012123700460703784 0.012710787357432134
000440 2e 8a 10 96 fb 45 7b bf cd 85 fd 54 b9 9f 8b 3f
       -0.006658537634424406 0.013488243013571566
000450 db ef fe 44 26 a0 77 bf ee 09 98 21 f0 00 58 bf
       -0.005767964830678064 -0.0014650673896318095
000460 e9 0a 11 83 20 59 7a bf 4f 79 96 a7 af 3e 82 3f
       -0.006432654380719363 0.00890862684428542
000470 35 96 1e db 41 62 7d 3f d1 e3 f3 c8 51 7c 66 bf
       0.007173783540485303 -0.002744827018997566
000480 63 15 43 de 0e cc 69 bf 28 44 f2 6a 8a 0f 87 bf
       -0.003149060286974746 -0.011260110272163074
000490 9c 10 e6 be 05 ab 8b bf fc 59 67 07 c8 2e 71 3f
       -0.013509793174997058 0.004195004809352639
0004a0 3f 55 7f 17 cd 57 4e bf af b0 49 47 b0 2b 96 bf
       -0.0009259940552463277 -0.021651033736291122
0004b0 cc 8d e2 a3 d8 18 83 bf 50 ec 99 98 06 2f 8c bf
       -0.009324734212276996 -0.013761569530507028
0004c0 90 f0 aa 91 ad e9 7c bf 2b 9e 1f 11 cc e1 81 3f
       -0.007058790210688795 0.008731455109184235
0004d0 f3 6e 09 f7 3f a9 6b 3f f5 1b 83 e5 79 02 5e 3f
       0.0033766030613103736 0.0018316450496500523
0004e0 d5 12 9d e4 78 71 92 3f 27 3b 0d 23 0d 40 8b 3f
       0.018010987237419968 0.013305761940186024
0004f0 50 00 be ee e5 20 4b bf fa 0b 98 3f 35 52 8a bf
       -0.0008278963773449364 -0.012852111819489299
000500 1e e5 8d bd b6 ef 76 bf 69 71 ac ed 33 d6 82 3f
       -0.005599702672833188 0.009197622004244637
000510 18 a4 db 2a 2e 14 85 3f dd 23 e0 f4 6f ad 83 3f
       0.010292397196694877 0.00960814920473923
000520 da 7e c0 20 7f c8 72 3f 0c 25 1e 60 f7 63 52 bf
       0.004585739701752545 -0.0011224666381813323
000530 9c c8 39 17 d9 0e 88 3f 9c 18 46 8a c9 1e 97 3f
       0.011747070332806246 0.022578381599963934
000540 13 b2 8c de 13 ae 62 bf ff a7 50 16 40 e0 42 3f
       -0.002280272300046579 0.0005760491300226266
000550 5f 16 35 ad ff 3a 87 bf 95 1d 97 52 34 3f 84 3f
       -0.011342999909753347 0.009886177797752175
000560 75 34 ef 38 c8 57 62 bf a1 db a5 01 52 03 84 bf
       -0.002239123401045757 -0.009771958041467079
000570 2e 3f 18 f7 d4 9a 88 bf fa 12 3c 91 77 0c 87 3f
       -0.012014068403942337 0.011254247779569838
000580 56 f6 79 19 f5 fa 81 3f c9 b2 f2 c5 54 63 85 3f
       0.008779444541910635 0.01044336537446479
000590 c7 0c 16 b3 50 f7 87 3f da bd 61 e6 90 7f 64 3f
       0.011702185120844878 0.002502234466241521
0005a0 a1 7b e1 d7 5d 63 80 bf 7b cd 67 57 f3 ed 78 3f
       -0.00800202670160194 0.00608630233044793
0005b0 4d 3c 05 a5 d9 62 6b bf 73 29 4d e5 5c 3c 60 3f
       -0.003343033873683099 0.001981908261233284
0005c0 e5 a1 20 90 cb 4d 87 bf c9 d0 ed d6 94 ad 70 bf
       -0.011378851257249198 -0.004071790127330562
0005d0 23 c2 50 ba e7 24 7d bf 5f 0f 5a 3a f0 d6 7e bf
       -0.007115273653696383 -0.007529199972512972
0005e0 03 bb da 0d 2d 10 84 bf 9f 47 cc b0 80 61 68 3f
       -0.009796478257468438 0.002976180409299325
0005f0 72 8f 8b a5 50 0b 68 3f de dc 31 11 41 07 6a 3f
       0.0029350829248517224 0.0031772871821505863
000600 1b c9 f0 b1 16 5b 7f 3f 12 81 3e 84 2c a1 54 bf
       0.007655228283555605 -0.001259129975530075
000610 30 32 06 27 5a 68 68 bf 52 96 98 23 23 ae 6a bf
       -0.002979446486455005 -0.003256863242102872
000620 97 88 4a ee 7f c4 95 bf 2c 5c e4 10 09 34 6b bf
       -0.021257399481904384 -0.0033207108564386103
000630 e9 3e ed ca 0d 1e 8b 3f 3a 21 1c 01 ba 6e 6d 3f
       0.013240916972477606 0.003592837609975555
000640 78 94 7e be 1e c8 39 3f cf c3 00 43 ac ae 71 bf
       0.0003933978136905834 -0.0043169716810078215
000650 65 85 2d f1 a1 06 86 bf 8e 3f c8 d2 28 52 7a 3f
       -0.010754838154471267 0.006426009622842245
000660 85 ec 16 04 83 d3 4a bf af 44 43 85 dc 41 94 3f
       -0.0008186712004126939 0.019782491334642213
000670 27 52 39 51 bb fa 79 3f cf 21 d6 97 ef bb 94 bf
       0.006342632015350825 -0.020248168604241997
000680 53 4d e7 93 ba 79 7b bf d6 4e bf 4a fd ab 93 3f
       -0.006707886523560208 0.01921077507706922
000690 20 c7 64 17 eb fd 87 bf 0e bf ec 66 bb a8 64 bf
       -0.011714779521387053 -0.0025218639560974426
0006a0 ff d3 29 78 96 8a 87 bf 81 4a 9a a2 87 56 93 bf
       -0.011494803945632624 -0.018884772586327706
0006b0 d3 69 bc 5e 8e d2 95 3f ca 48 15 c6 c2 64 81 bf
       0.021311020405031144 -0.008492967290895232
0006c0 89 45 81 52 53 01 71 3f 8c 23 6b af d8 d0 92 3f
       0.004151654699016468 0.018374810892769086
0006d0 71 f5 b7 13 0b 83 7a 3f 41 8a 0f e5 d0 39 56 bf
       0.006472628850585736 -0.0013565578449222934
0006e0 72 59 37 5d 13 fc 61 3f 18 9a 81 c1 26 0a 52 3f
       0.0021953943448622055 0.001101053092520515
0006f0 10 d9 79 d7 2c 44 8a 3f 78 7a 45 38 ae 7d 81 bf
       0.012825346303753565 -0.008540497867838712
000700 a7 12 33 29 96 d7 73 3f a5 b0 64 58 47 50 89 3f
       0.004844271246103793 0.012360150704431591
000710 0e 09 5c 48 29 64 55 bf db 3a 0d c1 81 ee 84 bf
       -0.0013056185866280909 -0.010220540718049722
000720 c9 de d2 b1 7c f3 85 3f d7 66 71 77 6a 2f 96 3f
       0.01071832101511862 0.021665252247067137
000730 d8 07 cb 5a 25 cb 62 3f 5c c6 77 b3 99 e6 85 3f
       0.002294133146592419 0.010693741597580679
000740 69 52 8d f9 d7 45 8b bf 17 70 97 a8 6d b3 8c bf
       -0.013316809943412626 -0.01401410742521851
000750 ad 35 80 37 bc 78 66 3f 20 98 a0 1e 70 40 74 3f
       0.002743117915094037 0.00494426533444961
000760 33 5b 96 c8 09 5a 86 3f 5e d1 a7 b7 75 98 47 bf
       0.010913921770038115 -0.0007200789253248121
000770 55 0d 48 ff ee 2b 95 bf e7 6b 2e 11 15 0e 7c bf
       -0.02067540581812229 -0.0068493674215472705
000780 21 ad 42 63 f3 e7 7a 3f de 53 2b 1d 2c a6 8e bf
       0.006568861707062086 -0.014965386047530001
000790 aa 42 54 da 54 10 7e 3f f8 88 08 62 5e 89 79 bf
       0.00733979364055474 -0.006234520610208565
0007a0 12 3a c3 ad 1b 23 73 3f 64 80 b3 b0 33 b9 65 3f
       0.004672153587490973 0.002651787717340469
0007b0 63 2a 34 e2 a0 0b 3c 3f 35 3c 6f 83 f0 ed 86 bf
       0.00042793920347664586 -0.01119602109056759
0007c0 a9 59 b7 1f 07 6c fa be 65 05 ae 23 b5 06 6c 3f
       -2.51979672450609e-05 0.0034211671713257224
0007d0 3c 5f df 30 31 23 87 bf f5 81 e8 d9 5f 8a 81 3f
       -0.011297592452976006 0.0085647095084491
0007e0 b0 84 c6 39 94 d6 80 bf 35 0d d8 cf 43 e0 88 3f
       -0.008221776974837475 0.01214650133170512
0007f0 97 dc a2 6f 72 6e 9b bf 0a 5d ec ed 8a b3 83 bf
       -0.02678850942967567 -0.009619794259875043
